notebooks/conv_autoencoder_cifar10.pt (torch, 810498 bytes, 12 tensors)

encoder.0.weight f4 [32, 3, 3, 3]
00000000: 37e6 e43d 57be 9a3d 3b98 d6bd e6bc 523e
00000010: d239 803d f955 47bd ed26 e43c 4ba5 e43d
00000020: df9a 02bd bf8f 2e3e cbe8 02be 8a75 323c
00000030: 6470 06be 66b3 8cbd b999 663d 1269 e33b
00000040: 118a 1bbe 0cb8 46be 8ebd 04bd 6e6f 11be
00000050: 341b 1abd 9fb0 15be 6919 66be b189 01be
00000060: 1a7a a2bd fe88 5b3b 4a0d 21be 0c7f fc3d
00000070: 34b0 ccbb 006d dc3d d358 073c a1e3 bfbe
00000080: 1e64 75bd caeb 3f3e d9ed 09be d4b2 4c3e
00000090: 6890 6abc 5a3c 0bbe 41ff bb3c d070 d4bd
000000a0: 331a a2be 5e11 1bbd 9b9c 0d3d 7fdd 83be
000000b0: 7eb7 46bc 3461 4c3d a610 54bc 3cdc bd3d
000000c0: f579 81bd c5a2 49be ecab d43d 436f ae3c
000000d0: 78e2 a0bd 1f0d b03e 9bd1 e13c e420 b73d
000000e0: 7ad4 153c 93ae 013e 4c84 373e a548 963e
000000f0: 53bc 51bd 3594 a83e de7e 5b3e 9601 06be
00000100: 59e2 3cbe 41b8 8dbd 34a5 17be 4e69 033e
00000110: c7d2 de3c b1a1 eb3c 69df a2bc 025e cf3d
00000120: b37c a1bc 4276 cbbd 6536 f9bc 613c 12be
00000130: a96f ea3d 4509 033e 9a59 febb b9f5 a93c
00000140: 269f d6bc 24c3 0fbd cb36 123e 21b8 aabd
00000150: 203e ac3d 3cc8 01bd 584d 7a3d b8a3 58bd
00000160: b70e 1bbe f2dc 673e 2682 a9bc 28cf c43d
00000170: aa33 3fbd db93 5fbd d42b de3b 9368 f03b
00000180: b8c9 a7bd a7d0 20be da59 723e 0163 023e
00000190: 4e24 a7bc 414f 01be cee2 08bc beaa ecbd
000001a0: 716b bfbd 8a5e f53d 8ba2 f4bd 0858 b43d
000001b0: 9105 6b3d 2232 943c 0be2 a7bd 0424 35bc
000001c0: bba2 19be c39c 8cbe 2ff3 ffbc 5090 4e3e
000001d0: be6a 4d3c 9683 48bd 49ab 3c3e f44f ca3d
000001e0: 8d9a 033d b0ab 99bc 024e 0ebd e6eb 49bd
000001f0: 660d 9f3e 50f6 cf3d 7319 a6bc 421d bfbc
00000200: 84af b9bc ae1b e9bc 3c33 a0bd ea46 5abe
00000210: 0ebf 45bd de16 183e 0dff 0d3d df9d 82bd
00000220: 143a 04be 6006 b2bb 0374 d3bd c653 c7bd
00000230: d30e c3bd 624d 6d3d 4d5e 43bd d047 fcbd
00000240: 9b74 363d 1d49 dbbc a70a 093d 960f acbd
00000250: bc14 583e 73e8 df3d a361 0c3c dd1b 4fbd
00000260: 8cb1 143e 5601 aebb 566a c23d 55de 3cbc
00000270: 26d3 1f3c b609 593e 4075 663e f837 b9bd
00000280: de29 ef3d 88a1 533e e6f1 1c3d 9135 b23d
00000290: d30f 423d a10c b63c a308 bb3b c2ef d23d
000002a0: 7504 f33d 8537 ed3d ade3 fe3d 692c 8f3d
000002b0: 6fc3 a93d 8802 9cbd 8773 b8bc f021 8a3d
000002c0: c16f f4bb e478 ed3c f1ba 253e 77a2 273e
000002d0: 7d3c 9dbd 6225 51ba 7d6f 4bbd 2cdb 26be
000002e0: 280d fabd bf84 c53d af6c d0bd c7e0 1bbc
000002f0: 861c d73d f6bb 13bd 87b3 2dbd 77e1 4f3c
00000300: 0dd6 c13d 4913 c7bd 40e0 fb3c d32b 3bbe
00000310: 1d2a ee3d 9504 3a3e fc43 a4bd a2c7 48bd
00000320: 1eb9 a93d ba18 c43c 7792 e33a 7712 183e
00000330: 7d89 b43d 34cf febd e7cf 963d 2e99 0c3d
00000340: 0f43 e83d 8577 ddbd b9e8 583a efc2 073d
00000350: 3244 573e e7fe f7bc b799 bb3d 9065 5a3e
00000360: 8104 c7bc 0d99 c3bd 68d8 73bd acfa 15be
00000370: 3d25 63be d348 8bbe fda9 1d3d c892 97be
00000380: 9e9a 71be dd34 a23d 79a3 4e3e d395 e43d
00000390: a46c 133e a411 2abe b5f7 22bd 957a 943d
000003a0: dfe4 3cbe b451 0abd df24 5f3d 1dc1 653d
000003b0: 9438 7d3d f338 fa3d 1f49 9d3c fe14 4ebe
000003c0: bff0 2cbd 1026 f83d 6103 bdbd 8b78 49bb
000003d0: b1c9 3f3b dbad 013c ad17 0bbe fce3 0cbe
000003e0: 11bc 00be a28f a53c 497b 07bd 146e 233d
000003f0: ef60 d13b 3553 9dbd 86be 973b b594 0d3d
0.111767225 0.07555836 -0.104782544 0.20579872 0.06261028 -0.048665974 0.027850593 0.1116434
-0.031885978 0.17047022 -0.12784116 0.010892281 -0.13128811 -0.06870155 0.056298945 0.0069400156
-0.15189387 -0.19406146 -0.032407336 -0.14202663 -0.0376236 -0.14618157 -0.2247063 -0.12650181
-0.07933445 0.0033498402 -0.15727726 0.1232892 -0.006246591 0.107629776 0.008260923 -0.37478355
-0.059909932 0.1874229 -0.13469638 0.19990093 -0.014316656 -0.13597241 0.022948863 -0.1037308
-0.31660613 -0.03785836 0.03457318 -0.25754926 -0.012128709 0.049897388 -0.012943422 0.09270522
-0.063220896 -0.19690998 0.10384354 0.021293288 -0.078556955 0.3438501 0.027565768 0.0894182
0.009144897 0.12664251 0.17921561 0.29352298 -0.05120499 0.32925573 0.21435115 -0.13086542
-0.1844572 -0.06919909 -0.14809114 0.1283314 0.027200116 0.028763624 -0.01988192 0.101253524
-0.019712782 -0.09934665 -0.030421445 -0.14280845 0.11447079 0.12796505 -0.007762146 0.020747053
-0.026198935 -0.03509821 0.14278714 -0.08335901 0.08410287 -0.0316851 0.061108917 -0.05289051
-0.15142332 0.22642878 -0.020691942 0.096098244 -0.04668013 -0.054584365 0.006780127 0.007336685
-0.08192772 -0.15704595 0.23667088 0.1273308 -0.020403054 -0.12627889 -0.008354856 -0.11556004
-0.09346665 0.119809225 -0.11945065 0.08805853 0.057378355 0.018090311 -0.08197411 -0.01105595
-0.15003483 -0.2746335 -0.031243889 0.20172238 0.012537656 -0.048953615 0.18424715 0.09878531
0.032129813 -0.018758625 -0.034742363 -0.049297236 0.3106491 0.10154402 -0.020275807 -0.02332938
-0.0226667 -0.028455582 -0.07822272 -0.21316114 -0.048277907 0.14852473 0.034667064 -0.06377768
-0.1291278 -0.005432889 -0.10324862 -0.097327754 -0.09524312 0.057935126 -0.047697354 -0.12318385
0.044544797 -0.026768262 0.033457424 -0.0840141 0.2110166 0.10933008 0.0085682 -0.050563682
0.14520854 -0.005310218 0.09492938 -0.011527617 0.009754932 0.2119511 0.22505665 -0.09043878
0.116779074 0.20667088 0.03831663 0.08701623 0.047378372 0.022222819 0.0057078167 0.102996364
0.118660845 0.11582855 0.124457695 0.069908924 0.08289229 -0.0761767 -0.022516025 0.06744754
-0.007459611 0.02898831 0.16184594 0.16370569 -0.07677553 -0.0007978288 -0.04966687 -0.16294545
-0.122095406 0.0964446 -0.1017698 -0.00951404 0.10503487 -0.036067925 -0.04240754 0.012688032
0.09464655 -0.09720475 0.03074658 -0.18278436 0.11629126 0.1816581 -0.080207795 -0.04901851
0.082872614 0.023937572 0.0017362376 0.14850794 0.08815286 -0.124418646 0.07363873 0.03432577
0.113409154 -0.10813812 0.00082744245 0.033144888 0.21022108 -0.030272914 0.09160178 0.21327806
-0.02429414 -0.095506765 -0.059532553 -0.14646405 -0.22182174 -0.27203998 0.03849219 -0.29604173
-0.23594138 0.07920239 0.20179547 0.11161389 0.14396912 -0.16608292 -0.039787013 0.07249943
-0.18446682 -0.033769324 0.054478522 0.05609237 0.061821535 0.122178935 0.019199906 -0.20125195
-0.04222178 0.12116635 -0.0922916 -0.0030742015 0.0029264505 0.0079149855 -0.1358325 -0.13758844
-0.12571742 0.020210091 -0.03307656 0.0398999 0.006389729 -0.07681886 0.0046308665 0.034565646

encoder.0.bias f4 [32]
00000000: 6a70 113d 0be0 70be e697 383e 0c9b 3f3e
00000010: e233 623e e73b fb3d 8852 2a3e e523 e9be
00000020: 82b2 6fbe f048 a83d e1c9 a2bd 3e97 8dbe
00000030: d50f 803e 793e b13d 48e8 7a3e 332f d83c
00000040: 9b06 babe a940 d7bd b196 88be 0e86 bc3d
00000050: 4be4 9bbe faf5 4bbe c52b 803d dc0b 82bd
00000060: 802d 643e 5c50 a6be ea30 1ebe 042c c8be
00000070: 6c96 c13d c124 913e cccb 02be 151c 983e
0.035507597 -0.23522966 0.18026695 0.1871149 0.22090104 0.12267285 0.16633046 -0.45535198
-0.23407939 0.08217037 -0.079486616 -0.2765445 0.2501208 0.08654494 0.24502671 0.026389694
-0.36333165 -0.1051038 -0.26677468 0.092052564 -0.3044761 -0.19918051 0.062583484 -0.06349918
0.22282982 -0.32483184 -0.15448347 -0.3909608 0.09452519 0.28348354 -0.12773055 0.29708925

encoder.2.weight f4 [64, 32, 3, 3]
00000000: e2d9 16bd 0278 af3c 5b51 e93c 55a7 e53c
00000010: 7ed6 2d3b 9985 303d e062 9d3c fd3c 8b3d
00000020: 4762 c33d b46d 463a c811 533d 9ae0 1b3c
00000030: 7aae 38bc 1bd3 de3d bd6f f03c c664 1ebc
00000040: 8481 173d ddaf c83d ea55 c93b 00a4 0ebd
00000050: d988 383d 349d a7bb 50d7 92bc bb83 c1bc
00000060: e244 79bc d534 54bb 7bac 36bc b5ac 9ebc
00000070: 89bd e43c 6ef6 0fbd 0fd8 adbc aff8 1cbd
00000080: 5ece 5b3d 2c45 5cbd 4cd1 113d 694f 913d
00000090: 349c eebc f940 4b3c 648e 3f3d 25b8 d53c
000000a0: e2c2 903c 533e 4bbc ee8d a53c e859 45bd
000000b0: d40d 39bd eecb 5a3c 4bad 4a3d 3fe8 0bbd
000000c0: 9eb7 34bd 3fbc 363d 075f 0ebd 932d d5bc
000000d0: 0d25 ed3c c3cd c2bc 4f80 63bc 8cbd 273d
000000e0: 2839 403d 9066 36bd be17 2b3c 4f1a 4f3c
000000f0: be95 f0bb 9c35 40bd 6fb7 a43c b9d3 6d3c
00000100: 2200 443d ce65 a0bc 039d 893c 2c44 5f3d
00000110: e3ac 10bc 7748 3e3c 48b6 f83b 9b0a c53b
00000120: 7f65 343d 85cc 983c 1480 ef3b 3dc8 82bc
00000130: c995 d93d 11a4 0c3d 9260 45bb 2bad 193e
00000140: 32f5 df3d 1bae c2ba 896c 5e3d 09a2 413d
00000150: 0b0c ddbc 9145 a13d d386 983d 90cb a7bc
00000160: 98a0 d13d 3ef8 ae3d c53b 583c e12b 17bd
00000170: b5d1 a9bc 2d92 763c fc71 aabc 4014 2cbd
00000180: 189e 5bbc 2f07 db3c f3c1 19bd 1248 96bc
00000190: 0eac fc3c b60c c33c 1c6d 24bd 743d 793d
000001a0: 03e7 2e3d bc55 733b ceed e73d bd09 003e
000001b0: 57fb cd3c 51b8 0cbd 751e 73bc f944 153d
000001c0: 8f18 31bd a354 123d dfec 1fbb 5870 00bd
000001d0: 2c50 7a3d d811 e9bc ea3c 243c e5a7 5c3b
000001e0: 46fa e43c 420b ddbc eaf6 943d 632a 0cbd
000001f0: dc45 823c cbc9 833d 6a78 7a3b e20b b2bc
00000200: 57ba d4bc f354 483d 685e 61bd 5ed2 abbc
00000210: 6c43 293d 7241 893d b141 2f3d 3b2b 28bb
00000220: 9aff 02bd 6f21 a23a a092 963c eb9c a63c
00000230: 7dc4 a6bc 5de5 bfba cc69 68bd 6919 44bd
00000240: eab2 a6bc 9a80 e7bc 2114 d13c 5b6a 763c
00000250: ad57 143c 323b b13d 1049 11bd 40bc 893d
00000260: 7c31 8d3d 2d2b d03c 5b75 b33b 80aa 583c
00000270: 7f89 0b3c 1c50 083d 51b0 7abc 65dd e13c
00000280: f1b5 093d 532b 4d3d 3c40 c63b 8b57 073c
00000290: 7745 023d ec16 1f3d c24f 093c c85f 58bc
000002a0: 24dd f3ba 7532 c3bc 4a29 653c 9421 0b3d
000002b0: fd4b 98bc 49c1 223d 5e0f 0c3b 61c6 16bd
000002c0: e02d 013d 26e5 abbc f631 44bc 02dc 303c
000002d0: 79eb a8bc 0b2b 8bbc e35f 9e3c 4f50 b73c
000002e0: 9fe2 f83b d568 23bb d72a 103d 9aee b43c
000002f0: 97d9 a73b e12a 0bbc 387c 29bc 3225 803d
00000300: b6ea 913c f11f c83c db91 213c 3f54 1f3d
00000310: 3ab6 f13c e23f 0f3d d3dd 663d 9858 083d
00000320: 69f3 47bc 3c94 4ebc 49cc d63c 7e7d 5a3a
00000330: 29fc d53c 1699 943c 8c34 6c3d b146 3cbb
00000340: f80f 4ebc ac08 d6bc 2622 263d c918 e83c
00000350: 6da7 b1ba e066 f03a 50d6 a93d bbf7 c83d
00000360: aa3e 353c c338 0c3c bc2e 41bd 72d9 00bd
00000370: a7dc 043d fab1 433d 9a61 b7bc 62b2 363d
00000380: a16a eb3b 65d8 b63c 6f67 453d e0e0 013d
00000390: 8260 bdbc 3688 053d c290 8e3d cf9a 053d
000003a0: 1e15 113d ffb8 d33d c76a 063d a458 233c
000003b0: 2680 1fbd 8672 aebc 72f6 89bb d2b7 1b3d
000003c0: f8a7 58bb 94a8 903c 171b d73b c428 0fbc
000003d0: db58 70bc 5660 223c 7285 82bb 0a45 c83b
000003e0: 8101 0f3c 64c0 9a3b 7665 1fbc 8bf6 c13c
000003f0: 0367 5cbc 93b3 19bd afd3 3b3d 2b4b 133d
-0.036828883 0.021419529 0.028481176 0.028033892 0.0026525552 0.04309616 0.019212186 0.06798742
0.09540229 0.00075694476 0.05153063 0.009513998 -0.011272067 0.10880109 0.029350156 -0.009667581
0.03698875 0.09799168 0.006144275 -0.03482437 0.045052383 -0.0051151756 -0.017924935 -0.023622384
-0.015214177 -0.0032380123 -0.011149521 -0.019369463 0.027922409 -0.035147123 -0.021221189 -0.0383231
0.053663604 -0.053776905 0.03559999 0.070952244 -0.029127218 0.012405627 0.046766654 0.026088784
0.017671052 -0.012404996 0.020209279 -0.048181444 -0.045179203 0.013354285 0.04948167 -0.034157034
-0.044120423 0.04461312 -0.034758594 -0.026022708 0.028948331 -0.023779755 -0.013885572 0.04095225
0.04692951 -0.044531405 0.010442672 0.01264055 -0.0073420694 -0.046926126 0.020107 0.014515811
0.04785169 -0.019579794 0.016798502 0.054508373 -0.008830282 0.011613957 0.007590089 0.006013227
0.044042107 0.01865221 0.0073089693 -0.015964622 0.106242724 0.034336153 -0.0030117375 0.15007465
0.10935439 -0.0014852913 0.054302726 0.04727367 -0.026983282 0.07874597 0.07447591 -0.020482808
0.10235709 0.08543442 0.013197844 -0.03690708 -0.020729879 0.015049499 -0.020806305 -0.0420115
-0.013404392 0.026736824 -0.03753848 -0.018344913 0.03084376 0.023809772 -0.040143117 0.060849622
0.04270078 0.003712996 0.113246545 0.12503715 0.025144262 -0.034355465 -0.0148388045 0.03644273
-0.04323631 0.035725247 -0.002440266 -0.03135714 0.061111614 -0.028450891 0.010024289 0.003366941
0.02795137 -0.026982907 0.072736576 -0.03422011 0.015902452 0.06434973 0.0038218745 -0.021734182
-0.02596776 0.04890914 -0.055021673 -0.020974334 0.041324064 0.06701936 0.042787258 -0.0025660533
-0.031982042 0.0012369583 0.018380463 0.020338496 -0.020357365 -0.0014640499 -0.05674152 -0.047875796
-0.020348985 -0.028259564 0.025522294 0.015040006 0.009054107 0.08653869 -0.03547007 0.06725359
0.06894204 0.025411213 0.0054766363 0.013224244 0.008516668 0.033279523 -0.015300826 0.02757139
0.03362078 0.050090145 0.006050138 0.008260618 0.031804528 0.03884022 0.008380832 -0.01320643
-0.0018605334 -0.02382777 0.013986895 0.03396757 -0.018590922 0.039735112 0.0021371464 -0.036810283
0.03153789 -0.02098329 -0.011974802 0.010794641 -0.020620095 -0.016988298 0.019332832 0.022377161
0.0075953747 -0.002493431 0.035197105 0.02208643 0.0051223743 -0.00849411 -0.010344557 0.062570944
0.017812114 0.024429293 0.009861435 0.038898703 0.029505838 0.034973033 0.05636389 0.033287615
-0.01220403 -0.012608584 0.026220458 0.000833474 0.026121216 0.018139403 0.0576673 -0.0028728659
-0.012577049 -0.026127182 0.04055991 0.028332131 -0.0013553925 0.0018341206 0.0829283 0.09812876
0.011062304 0.008558455 -0.04716371 -0.031457372 0.032436993 0.047777154 -0.022385407 0.044603713
0.007184342 0.022319982 0.048194345 0.031708598 -0.023117308 0.032600604 0.06961204 0.03261834
0.03542053 0.103380196 0.032816675 0.009969864 -0.03894057 -0.021294843 -0.004210287 0.0380171
-0.0033059102 0.01765851 0.0065645087 -0.008737747 -0.014669622 0.009910664 -0.003983193 0.0061117457
0.008728386 0.004722642 -0.00972878 0.023677131 -0.013452294 -0.03752477 0.045856174 0.035960358

encoder.2.bias f4 [64]
00000000: 12e3 bc3a a34d ab3d 1d99 6b3c e653 68bd
00000010: 942a 543b 9fe9 b7bd 31cd 5f3c a76c 15be
00000020: dfda e4bc d3c2 4f3d 3f01 b83b c311 7fbd
00000030: 6920 40bc 5d21 b3bc e26d 3b3d 2dc3 143c
00000040: b744 333c 2084 423d e24e 753d 4960 05be
00000050: 06b9 91bd c619 01bd 45cd 8e3c c892 073b
00000060: 98f8 023d d401 babd 2ac9 6690 f5d8 4cbd
00000070: c710 c03a 0ad3 c53c 12f1 153d 8e73 13be
00000080: 9784 8c3d e25c b6bb a5c3 07be a847 23bc
00000090: 9507 763d 2bd8 1a3d e766 653c 60f4 43bb
000000a0: 30c7 f43b 617a 49be b23e 29bc 0d95 b1bc
000000b0: 6b33 7b3d 479b df3c 82a4 a3bd 9b2e 503c
000000c0: f6ba 1a3d d03c 2abd fff8 cf3c fc7e 12be
000000d0: 19f0 993b c3df a3bd e10e 39bd 7fe6 cd3b
000000e0: a834 9b3c 64a0 0e3e e0c0 613d 3ddd 4e3d
000000f0: dece 033d 6d68 6cbb 397e 403d ac9d 00bd
0.0014410934 0.083644174 0.014379767 -0.056720637 0.0032374011 -0.089801066 0.013659761 -0.14592229
-0.027936397 0.05072291 0.005615383 -0.0622728 -0.011726477 -0.021866495 0.04575909 0.009079737
0.010941676 0.047489285 0.05988968 -0.13025011 -0.071153685 -0.03151872 0.017431865 0.0020686854
0.03197536 -0.0908238 -4.5514473e-29 -0.050011594 0.0014653438 0.024148483 0.036606856 -0.1439955
0.06861227 -0.0055652717 -0.13258226 -0.009965815 0.060065825 0.03780381 0.014001585 -0.0029900298
0.007470034 -0.1967559 -0.010329889 -0.021677518 0.061328333 0.027295722 -0.07990362 0.012706424
0.037775956 -0.0415619 0.025387285 -0.14306253 0.0046978113 -0.080016635 -0.045180205 0.006283581
0.018946007 0.13928372 0.05511558 0.050503958 0.032179706 -0.0036072985 0.046995375 -0.031400368

encoder.4.weight f4 [128, 64, 3, 3]
00000000: 1ad5 b8ba e5e8 3a3b 8397 e03b 0326 62bc
00000010: 8274 62bc 8a2d 0c3b fd83 debc dc07 17bd
00000020: 6266 01bb 5594 c6bc aacd c4bc e723 5e3c
00000030: 3194 8f3a 0489 3f3c c9ea 29bc d8b4 063d
00000040: bf19 e1bc f8b5 93bc 1f5e 0a3c 3444 af3b
00000050: a8df 82bb 458f a43b baed bbbc 9576 27bc
00000060: 7b3c 25bc 0732 9a3b db32 45bc e949 19ba
00000070: 1d5a 85bc 1ea1 9d3c 2041 3ebc 84da cf3d
00000080: 558c b5bc aed5 b83c 9eea 5c3c 49d3 f1b9
00000090: c8bd dbbc ef78 f6bb ab9d 893c b932 efbc
000000a0: 725f 88bd 8255 04bd b890 cc3b 5bd6 06bd
000000b0: 11e2 39bb 59f7 83bb 59c2 2fbc 9cd5 6c3a
000000c0: 3df3 9f3b db54 4a3c c19c 4c3b 4631 9abc
000000d0: c6cf acbb 2f90 eb3b 7219 e03b 57cb a83c
000000e0: c1ae 173c 5d1e 1cbc 62c3 13bc 0068 11bb
000000f0: 5e0b 0a3d f4dc b03b 6607 083c 08e5 9a3b
00000100: ad28 1ebc 2e6c aabb 04ff 31bb a0b5 70bd
00000110: b867 4cbc 3c7a b43a 2004 f43a 4be7 99bc
00000120: 0618 b3bc b007 063d e18c 71bc 5763 523d
00000130: 3e7d 0dbd 3079 eb3c 15d2 02bd dab5 893c
00000140: a02c 86bc f41c e23c 0477 4e3c 3e49 d7bb
00000150: 86b1 5f3a 38b5 413b 039e 813b 5800 90bc
00000160: b9af 633c be8a 07bc d9a1 cf3b 2bc6 723c
00000170: 5139 cebb dfdc b93b aa59 5dbd 3771 c3bb
00000180: 5334 c5bb bce0 02bd ce2b 803a be9c 033c
00000190: a222 1dbd 1103 b93c 22d3 80bc 95ee 823d
000001a0: bd7c c93b ce6e d63c 835e 03bd eb6e 1c3c
000001b0: b911 bbbb 0fd5 8fbc aeb5 0cbd 2c35 d83c
000001c0: de10 ff3d f474 98bc 618f 0a3c 8002 263c
000001d0: 141e c83c 4beb d63b 41c4 68bb 034f 6c3c
000001e0: c940 38bc 177c 92bc 0d36 9dbb 3031 3e3c
000001f0: af74 83ba bba4 f63b cd0c 1cbc fc64 adbc
00000200: be17 85bb 10e1 243d 8c7a 643d 0a3a 21bc
00000210: d7f2 a4bc b378 cd3c f1c0 023c 318d f9bb
00000220: 6e4f d03c 9d29 3ebc 48ab 4b3d 1b97 d9bd
00000230: afc3 0f3d 558d 3a3c 8521 38bd 0109 03bd
00000240: c2b3 9dbb cbae dbbc d1f9 813c 7030 813c
00000250: 28b8 303d 1bdb 0f3c 3bdc 8cbb 7635 a6bc
00000260: 11a4 d53b 408d 6dbc bf99 80bc 671b 0abd
00000270: ae3f 71bc cb3a 043e 58f9 c93c d1ee 0dbc
00000280: f534 233d 3b58 5bbc 4e60 25bd 6add 6c3d
00000290: 04d0 15bd 13df 9ebb 4126 c23b 3a71 163d
000002a0: 1700 433a 6da5 bebd ea55 eebb 7c95 cf3a
000002b0: 5ef0 d7bc fe02 2c3c 64cd 80bc 8ded 853d
000002c0: 9a74 02bb 67b3 923c 0010 beb9 9995 8f3b
000002d0: 8587 3e3d 25a4 98bb 3845 083c 15dd c5bc
000002e0: 2384 2e3e 0670 c1bc 5fac 4c3c d547 de3c
000002f0: 9530 143c 9e28 043c 2847 72bc 1ca9 4c3c
00000300: dabd d8bb 604c 993d 08d1 35bc 8ffa c13c
00000310: ff74 bf3c 6edb 813c b076 febc f1f6 863c
00000320: 327c 4bbd 93ed ce3c 64c6 50bd fc07 37bb
00000330: ed36 1a3c ada4 3ebc ed81 203d 8db9 ccbc
00000340: 2c72 98bc ac02 843d 590e e2bb e051 923c
00000350: a7cd 8b3c 47f1 da3c 12ab aabb 8788 a5bc
00000360: f2e2 603c 9215 febd 6e6e 98bc f0d0 6fbd
00000370: 35fc 2c3d 129d 06bd fa30 2ebc 4530 563d
00000380: ab95 683c 9e27 003d 2c04 1ebc 0b99 133c
00000390: 8107 223b 07e5 a1bc 4e8b 05bc 0f71 813b
000003a0: 6f5b c0bb 9638 c53a ec5b 0500 9059 0580
000003b0: eb67 0500 8b5f 0580 266b 0500 3b57 0580
000003c0: 2966 0500 f763 0580 a45d 0580 bfe3 14bc
000003d0: 25d8 4a3d a723 27bc 01b1 a63c d009 ab3c
000003e0: 337a a23d 72e5 aa3b 5ee5 233c fc4e 2c3b
000003f0: 03e3 4b3b ea95 76bc 5ee9 a4bc 3079 263c
-0.0014101595 0.0028520164 0.006853999 -0.013803008 -0.013821723 0.0021389448 -0.027162546 -0.03687273
-0.0019744863 -0.024240652 -0.02402385 0.0135583645 0.0010954199 0.011690382 -0.010370919 0.03288731
-0.027478097 -0.018031105 0.008445292 0.0053487066 -0.003993947 0.005021962 -0.022940505 -0.010221143
-0.01008522 0.0047056708 -0.012036051 -0.00058475 -0.01627832 0.019241866 -0.011612207 0.101491004
-0.022161642 0.022562828 0.0134836715 -0.00046124522 -0.026823893 -0.0075217406 0.016798815 -0.029198991
-0.0665883 -0.03230811 0.0062428378 -0.03291927 -0.0028363506 -0.004027289 -0.010727488 0.0009034516
0.004881291 0.012349333 0.0031221362 -0.018822324 -0.005273792 0.007188819 0.006838971 0.020604772
0.009257973 -0.009528724 -0.009018751 -0.0022187233 0.033702247 0.0053974334 0.008302545 0.0047270097
-0.009653253 -0.0052008843 -0.0027160058 -0.05876696 -0.0124759 0.0013769339 0.0018616952 -0.018787047
-0.021862041 0.032722175 -0.014743061 0.05136427 -0.03454327 0.02874431 -0.03193863 0.016810346
-0.0163787 0.027601697 0.012601618 -0.0065700104 0.0008533228 0.0029557478 0.003955604 -0.017578289
0.013896876 -0.008272825 0.0063364324 0.014817755 -0.0062934537 0.005672082 -0.05404059 -0.005964424
-0.0060182004 -0.031952605 0.000977868 0.008032976 -0.038363107 0.02258447 -0.015725676 0.06393162
0.006148903 0.026175883 -0.032072555 0.009547929 -0.0057089 -0.017557649 -0.03435295 0.026392542
0.12454389 -0.018610455 0.008457036 0.010132432 0.024428405 0.006558811 -0.0035517367 0.014423135
-0.011245915 -0.017881436 -0.004797703 0.011608407 -0.0010029281 0.0075269616 -0.009524536 -0.021166317
-0.004061668 0.0402537 0.055780932 -0.009840498 -0.020135326 0.025081968 0.007980571 -0.0076157083
0.0254285 -0.011606601 0.049723893 -0.10624524 0.035098728 0.011386235 -0.04495384 -0.03199101
-0.0048126886 -0.026816746 0.015866192 0.015770167 0.043144375 0.008780266 -0.0042987145 -0.020289164
0.0065198024 -0.014499009 -0.015698312 -0.03371754 -0.014724655 0.12913053 0.02465503 -0.008662895
0.039845426 -0.013387735 -0.040375046 0.057828344 -0.036575332 -0.00484837 0.0059249704 0.036729075
0.0007438673 -0.09308896 -0.0072734253 0.0015837396 -0.026359733 0.01049876 -0.015722938 0.0653945
-0.0019905926 0.017907811 -0.00036251545 0.004381847 0.04651596 -0.0046582394 0.008317284 -0.024153272
0.17042594 -0.023612987 0.012492268 0.027133862 0.009044786 0.0080663245 -0.014787473 0.012491491
-0.006614429 0.074852705 -0.0110972 0.023679046 0.023371218 0.015851703 -0.031062454 0.016475173
-0.04967899 0.025259769 -0.05097045 -0.0027928343 0.009412509 -0.011635941 0.039186407 -0.024990821
-0.018609129 0.06445822 -0.006898683 0.017861307 0.017065836 0.026726378 -0.0052083815 -0.020206703
0.013725983 -0.12406458 -0.018607344 -0.058548868 0.04223271 -0.032864638 -0.010631794 0.052292127
0.01419584 0.031287782 -0.009644549 0.009008656 0.002472371 -0.019762529 -0.008150889 0.003950245
-0.0058702747 0.0015046771 4.92153e-40 -4.91306e-40 4.96456e-40 -4.93452e-40 4.97615e-40 -4.9047e-40
4.95826e-40 -4.95038e-40 -4.9277e-40 -0.009087502 0.049522538 -0.010201371 0.020348074 0.020878702
0.07933464 0.0052153403 0.010003416 0.0026292196 0.0031110651 -0.015050391 -0.02013081 0.010160729

encoder.4.bias f4 [128]
00000000: e8a4 9b3d 28be babd ee2a 9f3a 945a 293d
00000010: 17c1 f83b d90b 593b d178 eabc ec88 a23d
00000020: 75fc 71b5 155b f1bc 37a7 c1bd b270 333d
00000030: ff08 3f3d 6927 f83a 4803 e23c e3e5 2b3c
00000040: 419f 253c e160 34bb 48be bfbb 283b 72bb
00000050: 44be 5dbd aa9e 65bc 59f8 89bc 8739 053d
00000060: cfae 82bc a788 c73c 8829 99bd 71d4 74b1
00000070: 1af2 f0bc 1212 ebbb 9f25 66a0 fde8 24bd
00000080: cb69 173c 76cb ae3b 9b03 163c 94e4 76bd
00000090: 44d8 1d3c 732f f73c cd69 04ba 22d7 d13c
000000a0: 9668 a93b d5cd 013d ef4a dc3a b4f6 a1bd
000000b0: a2d9 543d aa76 683c 71a7 643c ffc2 0c3d
000000c0: 9e1c d83c 6ec1 c9bd e696 6d3d 34f4 013d
000000d0: 2e51 973c e498 a8bd e0f8 8b3b 8229 a3ba
000000e0: 1308 c13c 86ca 30bc 7e28 d9bc a1a1 8b3c
000000f0: e1e6 493c 0e14 e13c bf49 2fbd 63d6 ba3c
00000100: 0b26 c43c cc24 733c dc2a 493d d036 493d
00000110: 5074 043d 7db7 63bd 7f64 0f3c c869 66bc
00000120: 2a73 f5bc aaac bb3c e24a 573d d182 56bc
00000130: 9b99 acbc f3ef 88bc ca7a 193d 7b14 da3c
00000140: 9f82 d6ba 1d87 413d 9eba 40bd 97be 1bbd
00000150: 35f8 0f3d 50c7 81bd ecda dc3c e5e8 743c
00000160: 960e be3c 66f6 a7bc 2910 1cbd 3aef 533d
00000170: 1619 14bd ce5e 50bd fa52 f0bd f038 153d
00000180: 3020 183b 6f6e c63c 90ac 983c 3f68 b5bd
00000190: b4b5 223d d78a a33d 9742 72bc 18c3 ad3c
000001a0: 4771 51bc aad7 7f3c 25f6 fa3b 4892 703c
000001b0: 9c0d 033d 121a ee39 13d6 8fbd 7190 983c
000001c0: 793b fe3c cc06 a4b9 e261 183d b993 ffbc
000001d0: 8cbd 0b3c cf19 ee3b 8b65 dfbc 3b87 54a3
000001e0: f980 8f3c 7b32 1f3b bff7 a43b 9c61 3e3d
000001f0: 4f36 9f3c be75 98bb 8714 ee3b beb8 3bbc
0.07599813 -0.09118301 0.0012143531 0.041346148 0.0075913775 0.0033118634 -0.028622063 0.07936272
-9.014687e-07 -0.029462377 -0.09455722 0.043808647 0.04663944 0.0018932644 0.027589455 0.010491821
0.01010877 -0.0027523565 -0.0058515407 -0.003696153 -0.05413653 -0.014014879 -0.016842054 0.032525565
-0.015952496 0.024357153 -0.074786246 -3.5627432e-09 -0.029412318 -0.007173785 -1.9494206e-19 -0.040261257
0.009241532 0.005334313 0.009156133 -0.060276583 0.009634081 0.030173993 -0.0005051166 0.025615279
0.0051699383 0.031690437 0.0016807 -0.07908383 0.051965363 0.014188448 0.013955937 0.03436565
0.026380833 -0.09851347 0.058005236 0.03172703 0.018471327 -0.082322866 0.0042716116 -0.0012448283
0.02356342 -0.010790473 -0.026508566 0.017044844 0.012323112 0.027475383 -0.04279494 0.022807306
0.023943922 0.014840316 0.04911314 0.04912454 0.032337487 -0.05559491 0.0087519875 -0.014063306
-0.029962141 0.022909481 0.05256165 -0.0130927125 -0.021069339 -0.01671598 0.037470616 0.026621094
-0.0016365832 0.047247995 -0.047052972 -0.038023558 0.035148818 -0.06336844 0.026959859 0.0149481045
0.023200314 -0.020503234 -0.03810135 0.051741816 -0.036156736 -0.050871663 -0.117345765 0.036431253
0.0023212545 0.02422258 0.018636972 -0.08857774 0.039724067 0.07985466 -0.014786384 0.021211192
-0.012783355 0.015615383 0.0076587372 0.014683314 0.0319954 0.0004541432 -0.07023253 0.018623563
0.031034218 -0.00031285582 0.037202723 -0.03119837 0.008529078 0.00726626 -0.0272701 -1.1521179e-17
0.017517554 0.0024291563 0.0050344164 0.046479806 0.019435076 -0.004652708 0.0072656306 -0.01145762

decoder.0.weight f4 [128, 64, 3, 3]
00000000: 2e69 d2bc 30f7 c03d c145 5f3d 835f 34bd
00000010: 86a2 3e3d 9480 4dbb 138e d1bb 82e6 d4bb
00000020: e14d 46bd aa3f a8bc 4e9e 03bd a090 4abd
00000030: 6b3e b1bc c69e 1b3e c0e8 2cbd df77 bcbc
00000040: 5dd1 573c 77fb 9d3c 1519 f4ba 0959 3dbd
00000050: 2b92 03bd e5a9 113c c039 263d 657d 02bd
00000060: 5a83 4b3b 9c3b 03bd 0956 afbb 72c1 9cbd
00000070: 5c0b 36bc cad0 78bc 517d 85bc 8145 ea3a
00000080: 5eab 64bc 4e09 22bc bed7 41bd 8611 283c
00000090: 42ba 60bc 8e92 aabc 61e9 55bc 33a3 5cbc
000000a0: b219 bebc 551b d6bc 373b b6bb b076 fa3c
000000b0: abbb 063c 4f5f b8bc ce64 543b dd41 b5bc
000000c0: 0389 0dbb e916 913d 7216 8f3b 0610 e33c
000000d0: 9105 5abb 1540 98bc 988a d23b b292 613c
000000e0: 1080 163c df6f 473d 59aa 3e3d 4c85 22bd
000000f0: 6044 313c 40c0 a3bb 6e93 0dbc 8c19 2fbd
00000100: d16a f83c 7bfa baba 5258 45bd 62f0 73bd
00000110: e485 2d3b 1516 023b 9af4 12bd 9444 a039
00000120: 9cf0 66bc 9fa6 003c 5e70 773c 9f37 1bbd
00000130: 2c26 623d d3c7 313c 8009 40bc bf1c 60bb
00000140: b371 23bd 3e63 57bc d224 673d 197b 57bc
00000150: e3b1 aebb 65f9 acbc 6061 893c 97a5 ffbb
00000160: 0312 123d e7a3 15bd f006 583d 7514 3abb
00000170: 38a6 ff3c 7739 e0bc 5788 b1bd 3378 b3bb
00000180: 7f98 173d 954d 303d 0a4e 82ba e2dd 28bd
00000190: 8ae5 e0ba b609 8c3c 10d1 723d 6f55 d2bc
000001a0: ff9e 943c 7d1d df3c f688 9dbc 6061 bdbb
000001b0: f144 30b4 38c7 15b8 0200 e5b5 fea7 68b6
000001c0: b594 7bb9 d319 43b8 e0d6 32b3 bd38 2bb8
000001d0: d62c 2c36 f8d9 cd3c ee1f acbc 1b3b 9ebc
000001e0: 28d5 b2bd e340 543d 1502 d6b9 fb97 483c
000001f0: 92a5 863c ca42 d73b 3df7 893c 2732 f33b
00000200: 6000 c3ba 7706 6ebc 36c4 3b3d 2ffa aabc
00000210: 3366 50bc a20f 3e3c 1f9e 36bc 7277 583d
00000220: 836a 4cbc 0bfa e5bc ffe6 d9bc 1869 d23b
00000230: ab3d 433d e9bf cb3c e80d c5bc 1f99 103c
00000240: 448f 5cbb 15a8 8ebb ba3c 18bb 236a 02bb
00000250: 5c00 0e3b c7d4 7dba e537 8f39 29b3 6fbb
00000260: 922e 06bb 775f 09ac a24a aead 7745 e8ab
00000270: 7e76 00ad 3d5e d3ae 88e6 75ad 325a 2327
00000280: 1988 23a9 5992 d526 e359 0500 6759 0500
00000290: 6cc2 0500 215d 0500 a25b 0500 495d 0500
000002a0: 6260 0580 ca5f 0500 0e62 0580 c10d 433d
000002b0: 7e97 e9bc f3da 003d 7dc7 28bb 0e22 f93b
000002c0: 5e09 c7ba d56c 4f3c c6fb 083d 42ce c0bb
000002d0: 915e 2dbc 4483 8cbd 5353 6a3c 3797 80ba
000002e0: e4f9 113d 8988 983c 5757 febc 0a3d cabc
000002f0: 1377 c2bc f772 cfbc 0e68 193d f7ec 3f3b
00000300: e1d8 84bc fd4b 9e3d 4ee1 063d 9289 ce3b
00000310: 4d06 9fbb ce0b cc3c 075c e5bc 9238 1ebd
00000320: cafe f33c 6690 3a3d b35e 1a3d fca6 4cbc
00000330: 4f18 a33b ddde a33c da96 913b 3f50 273b
00000340: 8000 863d 4859 7fbc c950 023c 3c55 8fbd
00000350: 5eb2 ee3c 6390 87bc 2686 57bc b0e2 6abc
00000360: 228d 4c8e 5a12 4c8e f438 4d8c 579b 458e
00000370: 7ee2 330e 8f39 3a8e 4aed 600e 410a 2f0e
00000380: 16dc 8a0d cb8e 05bd 47b4 be3b 2b03 4e3c
00000390: b371 823c 59d0 f2bb 7c5e acbc 4ae0 f8bc
000003a0: c2fe f33c 35a7 2d3b 3393 4d3c b04f 823b
000003b0: 68b6 4bbc 6b4f f4bc 1a14 64bc 842d 14bd
000003c0: 6e48 8dbb 33a2 5f3a c8ef d4bc 5219 a6ba
000003d0: df1d a7bc 3a68 03bc baec 2fbc 1dd9 ab3c
000003e0: 7747 af3c f28f 01bd c7f7 febc 0849 073d
000003f0: 6375 0500 1671 0500 296b 0580 c96f 0580
-0.02568492 0.09422147 0.054509882 -0.0440364 0.046541713 -0.0031357156 -0.0063951104 -0.0064972052
-0.048414115 -0.02053817 -0.032133393 -0.04945433 -0.021636209 0.15197286 -0.042214155 -0.023006378
0.013172475 0.019284947 -0.0018623198 -0.04622749 -0.03212182 0.008890604 0.04058242 -0.031857867
0.0031053633 -0.03203927 -0.0053508324 -0.07654084 -0.011111107 -0.015186498 -0.016295107 0.0017873497
-0.013956873 -0.009889914 -0.04732489 0.010258084 -0.013716282 -0.020821836 -0.01305613 -0.013466644
-0.023205612 -0.02613608 -0.005561258 0.030574173 0.0082234545 -0.022506384 0.0032408717 -0.022126133
-0.0021596558 0.07084448 0.0043666894 0.027717602 -0.0033267478 -0.018585244 0.006425213 0.013767885
0.009185806 0.048690673 0.046549175 -0.039677903 0.0108195245 -0.004997283 -0.008641107 -0.042748973
0.030324372 -0.0014265323 -0.048179932 -0.05955542 0.002647751 0.0019849588 -0.0358778 0.00030568673
-0.014095452 0.007852226 0.015102474 -0.03789484 0.055212185 0.010850864 -0.011721015 -0.0034196822
-0.039903354 -0.01314622 0.0564316 -0.013151907 -0.0053312643 -0.021115014 0.016770065 -0.0078017223
0.03566171 -0.036533263 0.05274099 -0.002839354 0.031207189 -0.027371151 -0.08668583 -0.0054769753
0.037010666 0.043042738 -0.000994147 -0.04122723 -0.0017158252 0.017094474 0.05928141 -0.025675504
0.018142221 0.02723574 -0.019230347 -0.0057794303 -1.6416358e-07 -3.5709905e-05 -1.7061832e-06 -3.4668478e-06
-0.00023992623 -4.6515674e-05 -4.1639282e-08 -4.082242e-05 2.5656095e-06 0.02512835 -0.021011319 -0.019315293
-0.087320626 0.051819693 -0.00040818812 0.012243266 0.016436372 0.006569241 0.016841525 0.00742175
-0.0014877431 -0.0145279085 0.04584142 -0.02087125 -0.012719679 0.011600407 -0.011146097 0.052848287
-0.012476566 -0.028073331 -0.026599405 0.0064212196 0.047666233 0.024871783 -0.024054483 0.008825569
-0.003365473 -0.004353533 -0.0023229555 -0.0019899688 0.0021667695 -0.00096828904 0.0002731673 -0.0036575294
-0.0020474535 -1.9521865e-12 -1.9814653e-11 -1.6503872e-12 -7.302268e-12 -9.611909e-11 -1.3977826e-11 2.266969e-15
-3.6311317e-14 1.4819512e-15 4.91423e-40 4.91249e-40 5.28923e-40 4.92586e-40 4.92049e-40 4.92642e-40
-4.93753e-40 4.9354e-40 -4.94353e-40 0.04762054 -0.02851462 0.031458806 -0.002575367 0.0076029366
-0.0015185287 0.012660225 0.033443235 -0.005883963 -0.010581628 -0.068609744 0.014302093 -0.000981069
0.035638705 0.018619793 -0.031047506 -0.024687309 -0.02373842 -0.025323374 0.03745275 0.002928553
-0.016216697 0.07729337 0.03292971 0.0063030208 -0.004853046 0.024907973 -0.027997984 -0.03862817
0.029784579 0.045547865 0.03768797 -0.012490984 0.004977263 0.02000373 0.0044430317 0.0025530008
0.06543064 -0.015585251 0.007953831 -0.06998679 0.029137786 -0.016548341 -0.013154542 -0.014336273
-2.5212894e-30 -2.5153777e-30 -1.5809764e-31 -2.4356918e-30 2.2172505e-30 -2.2953984e-30 2.7724382e-30 2.1575352e-30
8.55789e-31 -0.03260688 0.0058198306 0.0125739975 0.015923357 -0.007410091 -0.021041147 -0.030380387
0.029784564 0.0026497368 0.012547302 0.0039767846 -0.012433626 -0.029823026 -0.013920808 -0.03617622
-0.004311613 0.00085309445 -0.025993243 -0.0012672341 -0.020399986 -0.008020455 -0.010737592 0.020977551
0.021396382 -0.031631418 -0.031124009 0.033028632 5.01288e-40 4.99745e-40 -4.9762e-40 -4.99278e-40

decoder.0.bias f4 [64]
00000000: 38e1 273d 7a3f 4c3d b979 c7bc 7f23 14bd
00000010: c64e 803d 783d 573d 11e8 95bc af7f 9b3c
00000020: 54d3 763d 4baa 763c cf26 d73c 593a 29ba
00000030: 4207 f2bb e1c8 5f3d 782a e2bc 8182 ca3c
00000040: 75c8 88bc 156d 24b7 f89d 1ba8 f027 fbbc
00000050: 465b 8c3c 1b9e 6f3d be52 773c f5ca 3bbd
00000060: 988f 5db8 aed2 203d a089 0e3d f685 243d
00000070: b764 df9e c457 9cbc 9cc9 1d3d 36f9 643c
00000080: 5e3b 57b1 96bd 14be bb35 21a3 488f 33bd
00000090: c13e 903d d00c baba 98cf 0c3c 503f 013d
000000a0: 0994 598e a3f4 e5bb 4b26 693d 2036 6e3d
000000b0: 534b bb3b ad8e 3e3d d7ac 1bbb bccd 6e3c
000000c0: 1d6c 033d ed41 943d d926 13b2 5f9d 573d
000000d0: db99 693c eac9 09bd 80ea f43c acc2 2c3c
000000e0: ef8a 843d f27d ad3b 918e b3ba 2631 843d
000000f0: 42ca 793c 2fee 06a2 23cb 543d a76c 743c
0.04098627 0.049865223 -0.024350034 -0.036166664 0.06265025 0.052548856 -0.018299134 0.018981783
0.060260132 0.015055249 0.026263623 -0.0006455533 -0.007386119 0.054634932 -0.027608141 0.024720432
-0.016697148 -9.800559e-06 -8.6384825e-15 -0.030658692 0.017133366 0.05850039 0.015095411 -0.04584785
-5.2824238e-05 0.03926342 0.03479922 0.040166818 -2.3652698e-20 -0.019084819 0.038522348 0.013975432
-3.1320364e-09 -0.14525446 -8.739205e-18 -0.043837816 0.07043219 -0.0014194492 0.008594416 0.03155452
-2.6818591e-30 -0.0070176884 0.056921285 0.058157086 0.0057157665 0.046522785 -0.0023754144 0.014575418
0.032085527 0.07239137 -8.565359e-09 0.052640315 0.014257873 -0.033639826 0.029896975 0.01054446
0.06471812 0.005294555 -0.0013699104 0.06454687 0.015245976 -1.828648e-18 0.05195154 0.014918483

decoder.2.weight f4 [64, 32, 4, 4]
00000000: 7ed9 d082 9a5f 0500 fb2a aa02 f9cd 0680
00000010: 3d5b aa3c ccae d83b 5539 823d fdf4 963c
00000020: f660 0580 3e69 0580 9563 0580 3970 0580
00000030: ed9e 4dbc f374 633c 79ee 843c ecbd 34bd
00000040: ef83 0500 105b 0500 ff90 0580 4b5f 0500
00000050: fdc0 873a 3aca 0580 5eaf 7d39 af78 0580
00000060: 246b 0580 6661 0500 2b6a 0580 0f58 0580
00000070: 661b d13a 30af 0500 7061 dfb4 caef 0580
00000080: 6482 e037 80a0 1ebc c643 09b8 b59a 903c
00000090: 6373 2d3a 6bb2 04a3 c901 25bb 97dc 1927
000000a0: d0bc d337 0953 a63b b341 0cb8 2da8 e23c
000000b0: ec39 b6bb 1b25 4228 b119 c73b c140 342a
000000c0: 69a1 d9bc 2dc6 48bd d66c 363d 8ad6 1fbc
000000d0: 860e 15bd ddb9 8d3d e20c f23c 4a75 533d
000000e0: 8ffe d1bb 4b62 cabc cb18 0c3e 27e9 99bc
000000f0: dcf8 803b e9bf 3f3d 2947 4dbd 8b2f f0ba
00000100: ac4e 0fbd e6bf d73c 9f0a 95bc 50cf 15bd
00000110: 1e44 f6bc 3427 2b3d 0447 aa3d 4764 c33c
00000120: ff77 bdbc ee99 d93d 09ef 013c 5bc7 43bb
00000130: 9fbc e4ba 8311 a5bc 05c0 33bc 027c 103d
00000140: 3151 5fbc 7472 8c3d ccdf 28bd c53b c43c
00000150: 92e4 9e3d 83cf 29bd 75ae 773c 86c9 aebc
00000160: 1056 54bd 8ad0 a0bb 4ad3 48bd de8a 923d
00000170: 9038 c93c 38f9 24bd 86d6 1e3d a2ac a63c
00000180: aa26 92bb 43e7 843d b97b c93c b17e d03c
00000190: 5cca 4c3d 95a4 8bbc 48cd ecbc 5c93 b6b9
000001a0: 01b4 c53c b37e 9cbc 557c 29bd 4dd3 85bb
000001b0: 467d 83bc 4660 813c ca36 c43b e0f7 c73b
000001c0: 22f3 8f3b a792 21bc fc96 19bd 1f2b 643d
000001d0: ba8d fd3b d76a 8dbc 7dbc a73b 39e6 e8bb
000001e0: 44d0 c93c 09f3 27bd ebb5 acbc 56f6 9c3c
000001f0: c33b 373c f743 383d 18b9 47ba 6dd9 b33c
00000200: 3f12 cd3c 66bb 27bc cedd 5fbc 18dd 1fbd
00000210: 519d 1f3c 0db4 53b9 3c55 20bd 385a 023a
00000220: 0b2e b13a 70ae 85bd 474d 803d 061b 00bd
00000230: d468 013d 0b6b 183c aa9c af3c a38a 673b
00000240: 294d e0b5 6a61 bdbb bf93 25b9 d7ec 97bb
00000250: eeb7 d7ba 42e3 c53d 1812 dd3c 85c6 073d
00000260: 8d18 aab8 df65 c8bb 2254 03ba 7ab3 95bb
00000270: 9cfe c8ba b854 99bc 7eb7 423c 422d 8aba
00000280: acfe 46bc ee7f 933c 359a 133d 74c0 ba3c
00000290: 68f5 ea3c e4bd 293c afc5 1b3d c4cd 613a
000002a0: 4d08 0f3d fe31 a13c a4ea 8d3d 5a3d f8bc
000002b0: 8ce6 38bc 32ff 8bbb a92c 02bd 178e d7bb
000002c0: 21fd 1cbd 93aa f9bc 1bea 6e3c d12d e2bc
000002d0: 82ed 82bd 7078 4d3d 3ddb e03c b953 5a3c
000002e0: 6bff 753c a74f 073b b6b9 703d e694 81bd
000002f0: f68b 0c3d 07b8 e63a e484 16bd 8c3a a93c
00000300: 114e c03b 8441 1bbc 9141 1b3d 7181 e23b
00000310: 5305 41bc 3b14 f8bc 5278 fa3c fd81 2dbb
00000320: 24ea ae3c b8ba 3cbc 0d57 343d b0f2 8bbc
00000330: 1ac9 c73c 7b5e 573b eb0d 5ebd 780f c23c
00000340: bde8 84bc 7f4f 8ebc de97 8c3d e752 e93b
00000350: 862f 11bd ea91 fb3c 49d2 a43c a8f5 b8ba
00000360: 303e 70bc 6983 a1bd a6e5 9f3d 453a 04bc
00000370: 1362 37bd e53d d2bb 3659 9936 f385 f539
00000380: 4fcb 7abc 6ea2 4cbc 3f1a 0ebc 8bce a6bc
00000390: 84e0 933c 60a8 b63b 8feb e4bc cb24 1ebd
000003a0: d7b8 c53b a19b d3bc 6079 fcbb da05 7b3c
000003b0: 27f3 f73c 6843 1f3c a674 fbbc 233a 8a3c
000003c0: 1a7c cabc 0260 5bbc 558e e6bc be1e 19bb
000003d0: c889 80bc 96f5 f5bc 58d0 113d b06d 57bc
000003e0: 4719 a13c a2a3 4d3d be53 8d3c 50bf a63c
000003f0: 5a80 aabb 5288 a33c 1b64 9e3b 0504 7c3b
-3.0687688e-37 4.93473e-40 2.5003925e-37 -6.24902e-40 0.020795459 0.0066126343 0.063585915 0.018427366
-4.9396e-40 -4.96931e-40 -4.94901e-40 -4.99435e-40 -0.012550098 0.013882863 0.016226994 -0.044126436
5.06506e-40 4.91845e-40 -5.11192e-40 4.93362e-40 0.0010357198 -5.31723e-40 0.0002419329 -5.0247e-40
-4.97612e-40 4.94117e-40 -4.97263e-40 -4.90767e-40 0.00159536 5.22023e-40 -4.1607882e-07 -5.45198e-40
2.6763599e-05 -0.009681821 -3.2726464e-05 0.017651895 0.000661662 -7.193516e-18 -0.0025178066 2.1352597e-15
2.5241083e-05 0.0050758165 -3.343979e-05 0.027668083 -0.005561104 1.0777209e-14 0.0060760607 1.6009678e-13
-0.026566224 -0.04901712 0.044537388 -0.00975574 -0.036390804 0.06920216 0.029547159 0.051625527
-0.0064085196 -0.024705073 0.13681333 -0.018787934 0.0039359163 0.04681388 -0.05011669 -0.0018324716
-0.034987137 0.026336621 -0.018193541 -0.03657466 -0.030061778 0.041785434 0.083143264 0.023851527
-0.023128508 0.10625063 0.007930526 -0.0029873464 -0.0017451233 -0.020149952 -0.010971074 0.035274513
-0.013630197 0.06857768 -0.041229054 0.023954282 0.0775844 -0.041457664 0.015117277 -0.021336328
-0.051839888 -0.0049076723 -0.049029626 0.07155393 0.024563104 -0.040276736 0.038778804 0.02034599
-0.0044601755 0.06489422 0.024595128 0.025451036 0.049997672 -0.017046252 -0.02890648 -0.00034823536
0.024133684 -0.019103384 -0.041378338 -0.004084027 -0.016050946 0.015792977 0.0059879767 0.006102547
0.0043929974 -0.009861625 -0.037497506 0.055705186 0.0077378424 -0.01726286 0.005118905 -0.007107523
0.024635442 -0.04100326 -0.021082839 0.01916043 0.011183682 0.04498669 -0.00076188287 0.021954263
0.025033114 -0.01023755 -0.013663722 -0.03902921 0.009742097 -0.00020189602 -0.039143786 0.000497255
0.001351775 -0.06527412 0.062647395 -0.03127577 0.031594113 0.009302865 0.021437008 0.0035330437
-1.6711757e-06 -0.005779435 -0.00015790666 -0.004636388 -0.0016458014 0.096624866 0.026986167 0.033148307
-8.1108046e-05 -0.0061156596 -0.000500979 -0.0045685144 -0.0015334669 -0.018717155 0.011884568 -0.0010542052
-0.012145679 0.018005338 0.036035735 0.022796847 0.028681472 0.010360215 0.038030323 0.00086137303
0.034920026 0.019677158 0.0692952 -0.030302692 -0.011285435 -0.004272365 -0.031780872 -0.0065782177
-0.03832734 -0.030476844 0.014582182 -0.027609738 -0.06392957 0.050163686 0.027448291 0.013325625
0.01501451 0.0020646842 0.058770858 -0.06327228 0.034313165 0.0017602452 -0.036747828 0.0206578
0.0058686812 -0.009476069 0.037904326 0.0069124033 -0.011781055 -0.030283084 0.030574951 -0.0026475184
0.021351881 -0.011519127 0.04402833 -0.017083496 0.024387885 0.0032862711 -0.054212492 0.023689017
-0.01622426 -0.017371891 0.06864904 0.0071204784 -0.035445713 0.030709226 0.020119803 -0.0014111297
-0.014663264 -0.078863926 0.07807474 -0.008070533 -0.044771265 -0.00641607 4.570141e-06 0.0004682984
-0.015307262 -0.012489898 -0.00867325 -0.02036216 0.018051393 0.005574271 -0.027944354 -0.038609307
0.0060339975 -0.025831046 -0.0077048987 0.015321219 0.030267311 0.009720661 -0.03069527 0.016873425
-0.02471738 -0.013389589 -0.028144041 -0.002336427 -0.0156907 -0.030024331 0.035599083 -0.01314871
0.019665373 0.05020488 0.017251845 0.020354897 -0.005203289 0.019962464 0.004833711 0.0038454544

decoder.2.bias f4 [32]
00000000: 004d 4abc 2e9e 76ba 0b37 c9bc 035a 233d
00000010: fdf1 103d 7c2a 3c3d 0d9a 773c 1f20 623d
00000020: 7f35 113d 0716 ca3c 2743 fa3c ba16 fc3c
00000030: 9141 003d c971 873d 425b 823d 248b 7f3c
00000040: cf90 cb3c 971b 6bbc 57a3 8e3d 7d61 193d
00000050: d09a 99bc 8c1a b5bc 4943 1a3d 2a68 76bc
00000060: 144a ee3b d78c 303d 1f0a 503d da5d b73c
00000070: f237 b1bc 4de8 143d 11f2 00bd 77c5 343b
-0.01234746 -0.0009407726 -0.02456238 0.039880764 0.035387028 0.045938954 0.015112412 0.055206414
0.03545141 0.024668707 0.030549599 0.030772556 0.03131253 0.066135 0.06365062 0.015597139
0.024849324 -0.01434984 0.06964748 0.037446488 -0.018750578 -0.022107385 0.037661824 -0.015039483
0.0072720144 0.043103065 0.050790902 0.02238362 -0.021633122 0.03635435 -0.031480853 0.0027583519

decoder.4.weight f4 [32, 3, 4, 4]
00000000: 2b48 ef3d bd19 113e 7bef 453c 2e84 bdbd
00000010: 71fb 12bd 62cd 793e 438a 113e 6a72 f43d
00000020: fc0a 82bc ea99 333e c04e a83d bd68 c33c
00000030: 9091 34ba 874a e03d b8e9 f03d 9bd2 4abc
00000040: 3bb0 1bbd 04e5 5ebc 6a63 edbc 5217 0d3d
00000050: c60e dfba 4906 293e 7546 2f3c 89ce 7ebc
00000060: dcb8 003d 8f2c 08bc 0643 013d 44ab 9c3d
00000070: db21 cc3c c282 983d 4b05 29bd 97b4 9abd
00000080: 6faf ec3d 5773 8dbc b29d 4e3d 97c7 ba3b
00000090: a4cc 613b 61d3 443b c999 143e 6a18 36bd
000000a0: 3b64 9f3d 5e49 8e3d 6414 fabc 7d52 e9bd
000000b0: 6468 b4bc b93d fdbb 7304 453d 42d7 9a3d
000000c0: 5eea 5d36 d755 25b5 1f96 5bb8 0bf6 acb2
000000d0: 7dd7 d0bb c79e 483a 2be8 e4ba 7307 ae36
000000e0: 2f1d c7b3 0ca0 b3b4 8a70 79b9 d739 e9b9
000000f0: bd51 e437 5f06 0c34 19d0 88ba 0764 d835
00000100: 1e22 763b 33fa deba 433a 76ba 6c7c 41b8
00000110: 6ac0 b1b5 d459 88b6 f0df 73b6 b774 0eb5
00000120: d722 bc35 5fd8 bb3b bf4b 913b e60c 21ba
00000130: db47 3a35 f13b 21b5 0e36 f7b5 cb14 a7b6
00000140: 1dab 25b7 4d25 1fbb ff5a 67b7 69d7 78b7
00000150: 2cea 2fb7 fd60 0ab6 edb1 10ba 29f7 8fb5
00000160: 0314 59b9 2ec1 bf3b 9926 6539 20db 36b8
00000170: c682 c739 5452 23b6 b516 83bb e12c cdb7
00000180: 1e43 ac3d c07c 923d ed83 8a3d e445 803d
00000190: 7d0c 0a3d 7f69 e73d e67f c2bc 6b8c 873d
000001a0: 7d9b dc3b bb28 7c3e f20f b73d 01b1 1f3e
000001b0: fff5 fa3c d59b b13d 109e c8bd f89e a73d
000001c0: 0903 34bc 374e 6c3d 92e0 f5bc fa2f 913d
000001d0: 205b af3c 4ed2 eeba d62d b13d 7e11 6e3d
000001e0: beee b4bd 62c1 c13d 8eb5 8abd 2ebe 603d
000001f0: 5d0e ddbd 1d78 a03d 496a 13bd 0b5e c83a
00000200: 8d68 463d dd78 74bd 471d eebb 9471 d03d
00000210: f2c2 ee3b 8c78 83bd 39cd 4cbd 1d33 dbbc
00000220: 3d6e 07be 8ef2 2dbd 70e0 3fbd 32d9 a53c
00000230: d90f e1bb 5824 b6bb 25fc b7bd 08aa 9dbc
00000240: c4a1 1dbd c8e1 9b3d 9b62 523e e9ad 423d
00000250: f946 233e d614 203e f897 9e3c 9af8 da3c
00000260: 468b f03d 37c9 fd3c 9510 83bc 2f7a 3a3c
00000270: 4138 143d 2f0e 42bd bf5c 4d3d fb5b 0cbc
00000280: 0c1c 07be b4af fc3d 8631 0f3e fd4a 6bbc
00000290: c5b4 b33c bdfb 0dbe d237 27bd 7a63 c33d
000002a0: 2940 0ebd ed50 a03d b04e c0bc 74d3 17be
000002b0: 90ef 603d dddd 61bc c940 123d 302c 10bd
000002c0: ab3d 0b3d 2f0b 01bc 62e5 2a3e 0a64 11bc
000002d0: 1d25 d33d 1fac 86bd 8a97 813c 77a3 a63c
000002e0: b0e1 4b3b a379 6ebd 0fa8 05be f473 abbd
000002f0: 7c30 a1bd f93a 33be c9e8 38bd bc0e f6bd
00000300: 1123 3e3d a574 a1bd e7ad e0bd 09fb 08bd
00000310: 24b6 bebd 24bf a3bd 0d7c 023e 6c75 a4bd
00000320: 7b6e 1c3d 3acc f03c 0db4 653e bc17 3f3c
00000330: ccb4 b2ba 2270 f4bd b2cd 373e fbc5 c23d
00000340: f6da ca3c 8662 a1bc 1329 94bd a272 a73d
00000350: 4a16 923d 2ffc 88bc 8b21 673e 17f2 993d
00000360: 35f0 383d 9090 6ebd 5321 113e 5de8 353e
00000370: 1689 c2bd 2be7 9e3d 3649 ca3d 2184 063e
00000380: 548b 833d 8f48 b33d 4135 0a3d 1c82 dcbd
00000390: c30c 903d a4fd a7bd 080b ad3c e1a4 1d3d
000003a0: 63e7 e43d e72a ebbb 5c44 053e fd07 e4bc
000003b0: af51 18be 3eeb 55bb 4137 5bbd 69da c53d
000003c0: de3f 1e3e 32c3 fb3d ad7d bdbd abb5 b2bd
000003d0: 74c4 39bd 66bd b7bd 8744 ba3d 4094 c2bd
000003e0: 7739 81bc c475 38be 6c0e bd3d 7422 8bbd
000003f0: e398 fcbd 2e6e cfbd 5e21 60bd d952 5a3d
0.11683687 0.14169975 0.012081022 -0.09253727 -0.035884324 0.24394754 0.14212899 0.11935885
-0.015874378 0.17539182 0.08218145 0.023853654 -0.00068881456 0.10951715 0.11763328 -0.012379314
-0.038009863 -0.013604406 -0.028978068 0.034446068 -0.0017017953 0.16506304 0.010697951 -0.0155521715
0.031426296 -0.008311405 0.03155806 0.07649854 0.024918487 0.07446815 -0.041264813 -0.07553976
0.11556899 -0.017266912 0.05044336 0.0057000625 0.003445425 0.0030033218 0.1451179 -0.044456877
0.07782789 0.069475874 -0.030527301 -0.113926865 -0.022022434 -0.007728305 0.048099946 0.075605884
3.3067986e-06 -6.1592203e-07 -5.235348e-05 -2.0135323e-08 -0.0063733445 0.0007653054 -0.0017464211 5.1864713e-06
-9.271968e-08 -3.3457798e-07 -0.00023788415 -0.00044484317 2.721778e-05 1.3040834e-07 -0.0010437994 1.6122366e-06
0.0037556957 -0.0017011821 -0.0009392837 -4.6130663e-05 -1.3243528e-06 -4.063573e-06 -3.634017e-06 -5.3068965e-07
1.4017231e-06 0.0057325806 0.0044340785 -0.00061435846 6.9394963e-07 -6.00644e-07 -1.8418666e-06 -4.9794085e-06
-9.874607e-06 -0.0024283708 -1.378986e-05 -1.4832106e-05 -1.0485335e-05 -2.0620057e-06 -0.0005519677 -1.0726263e-06
-0.00020702188 0.0058518862 0.0002185352 -4.3596257e-05 0.00038053672 -2.4336814e-06 -0.0040005096 -2.4458803e-05
0.08411239 0.071527004 0.06763444 0.062633306 0.033703316 0.11299419 -0.023742627 0.066185795
0.006732403 0.24624912 0.08938588 0.15594865 0.030634878 0.08672301 -0.09795773 0.08184618
-0.010987052 0.05769178 -0.03001431 0.07089229 0.021405756 -0.0018220635 0.08651321 0.05812215
-0.08834599 0.09460713 -0.0677291 0.05486887 -0.10793755 0.0783541 -0.035990033 0.0015286816
0.04843955 -0.059685577 -0.0072666737 0.10177913 0.007286423 -0.06419477 -0.050000403 -0.026757771
-0.13225646 -0.042467646 -0.0468449 0.020245168 -0.0068683443 -0.0055585317 -0.0898364 -0.019246116
-0.03848435 0.07611424 0.20545428 0.047529135 0.15945043 0.15632948 0.019359574 0.02672987
0.11745314 0.030979736 -0.015999118 0.01138167 0.03618646 -0.047376808 0.050137278 -0.008566852
-0.13194293 0.123382 0.13983735 -0.01436114 0.021936784 -0.13865562 -0.04082472 0.09540458
-0.034729157 0.07827935 -0.023475021 -0.14826757 0.054915965 -0.0137858065 0.035706315 -0.03519839
0.033994358 -0.0078762015 0.16689065 -0.008873949 0.10309813 -0.06575798 0.01581933 0.020341618
0.0031109862 -0.05822147 -0.1305239 -0.08371726 -0.07870576 -0.17502965 -0.045143876 -0.12014529
0.04642016 -0.07883576 -0.10970669 -0.03344253 -0.09312084 -0.079954416 0.12742634 -0.08030209
0.0381913 0.029394258 0.22431965 0.011663374 -0.0013634204 -0.1193545 0.1794956 0.09510418
0.024762612 -0.0197003 -0.07234397 0.08176161 0.071331576 -0.016721813 0.2257139 0.07516878
0.045150954 -0.058243334 0.14172868 0.17764421 -0.09498803 0.077589355 0.09877245 0.1313634
0.06423059 0.08754074 0.033742193 -0.10767004 0.07033684 -0.08202675 0.021123424 0.03848732
0.11176946 -0.007176745 0.13014358 -0.02783584 -0.1487491 -0.0032641436 -0.05351949 0.09660799
0.15454051 0.1229309 -0.092524864 -0.08726057 -0.045353368 -0.08971672 0.09095102 -0.09500933
-0.015774472 -0.18013674 0.092312664 -0.06793681 -0.12333848 -0.10128437 -0.05471932 0.053301666

decoder.4.bias f4 [3]
00000000: 903f 813a 74df b13c 183e 893d
0.0009860862 0.021712996 0.067012966
