notebooks/conv_autoencoder_cifar10.pt (torch, 810498 bytes, 12 tensors)

encoder.0.weight f4 [32, 3, 3, 3]
0.10879787 -0.052858323 0.022103863 0.004844456 -0.2923851 -0.114659585 0.011862079 -0.21586795
-0.00251463 0.041848715 0.02308284 0.0037147396 0.23279198 -0.2077701 0.031483598 0.15199481
0.06128397 0.26085997 0.010251323 0.024514442 0.029413717 -0.03191293 -0.15370929 -0.1873324
0.015641173 0.14942922 0.11060411 -0.12875183 -0.11075388 0.0042015603 0.12977986 0.0993137
-0.15818393 0.00886106 0.1232122 -0.00020826845 -0.022340275 -0.19849443 -0.01150368 -0.048166946
-0.014543479 -0.05434895 -0.04918163 -0.117122926 -0.103257656 0.14230467 -0.10741151 -0.1541116
0.024328908 -0.1970068 -0.04921413 -0.09923046 -0.0020780547 -0.16498314 0.032394707 -0.10619918
-0.029275566 0.03888702 -0.08245472 -0.018345313 -0.22481084 0.10878904 0.10151277 0.053439796
-0.047231995 -0.0619769 0.07000754 0.15720493 0.24024352 0.036751326 0.18028897 0.27125254
0.027861543 -0.06017123 -0.15010415 -0.19156754 0.09287853 0.21354178 -0.061738286 0.13598931
0.17320557 0.02636238 0.0022612044 -0.112747416 -0.04804336 0.022489946 -0.11597227 0.110124044
0.3099941 -0.19353521 -0.123406 0.12642853 -0.08267174 0.13738593 0.25523046 -0.07450648
0.0015319296 0.2578045 -0.023436308 -0.029407624 0.04854421 -0.011906037 0.084122166 0.27483612
-0.19815838 -0.07776432 0.16189136 -0.1510734 0.017789943 -0.15750907 0.016442306 0.07233853
-0.115103275 0.1853806 0.00457913 -0.10649039 0.016035652 -0.028040245 0.06241332 0.07589689
0.07462677 0.07062156 -0.06510731 -0.07614439 -0.09760801 0.1028145 0.05527993 0.071200706
0.13686466 -0.04296563 0.20241572 0.010906709 -0.041882563 0.09727904 0.23611592 -0.056326993
-0.021935893 0.0066699474 0.045932118 0.037730232 0.2066661 0.04589571 0.17668788 0.19433843
0.06436389 0.008111839 0.1361254 -0.0067066965 0.013044932 -0.087594144 0.019295288 0.23230402
0.11502754 -0.03218404 -0.16188674 0.0011385197 -0.06440367 -0.20647088 -0.07396407 0.10485315
0.07791194 0.098550566 0.113607414 -0.066770956 -0.0065133176 -0.16706316 -0.03194465 -0.07425701
0.13452545 0.04616743 0.041663323 0.15300679 -0.12345742 0.08988753 -0.019169249 -0.014561258
-0.066369146 -0.056461986 0.0700337 -0.048476867 -0.04841064 -0.16333932 -0.10625317 -0.14322472
-0.17323925 -0.10036794 -0.062049825 -0.050174534 0.10238615 -0.119744375 0.15363735 0.050408605
-0.030603891 0.06202207 -0.02413666 0.028289396 -0.16193911 0.16429295 -0.04117146 0.18720816
-0.14801964 -0.015386938 0.18261324 0.14737254 -0.13239397 0.10729103 -0.032442153 0.09774929
0.0718817 0.01363189 0.11557929 0.17886075 0.17020072 0.13497335 -0.013936678 -0.115638785
-0.09137486 -0.025620628 0.025590647 0.17006811 0.29803532 0.1345103 0.09566785 -0.21878237
0.018622553 0.03882971 0.04325077 -0.0032583894 0.008531248 -0.11573268 -0.14322746 -0.05618618
-0.31119326 0.0027771164 -0.05226331 -0.043012038 -0.0631571 0.19426936 -0.08400788 0.10679656
0.13611151 -0.21034983 0.08653813 0.05575704 -0.124387555 0.0071524987 0.0952805 -0.029847601
0.07782959 -0.016439812 -0.01255104 -0.16547237 -0.16070293 -0.10960031 0.17327826 0.16288607
00000000: 6bd1 de3d f881 58bd 2913 b53c 3ebe 9e3b
00000010: 80b3 95be a5d2 eabd 2a59 423c 7d0c 5dbe
00000020: 7ecc 24bb 8f69 2b3d 3918 bd3c fd72 733b
00000030: 0561 6e3e afc1 54be f2f4 003d 87a4 1b3e
00000040: e604 7b3d 708f 853e 2af5 273c 83d2 c83c
00000050: 09f5 f03c 22b7 02bd f865 1dbe 11d4 3fbe
00000060: eb21 803c f903 193e 6884 e23d 85d7 03be
00000070: eed2 e2bd 3ead 893b 03e5 043e fb64 cb3d
00000080: f8fa 21be fb2d 113c ae56 fc3d a362 5ab9
00000090: f402 b7bc 2042 4bbe ee79 3cbc b44a 45bd
000000a0: c647 6ebc 019d 5ebd ad72 49bd 25de efbd
000000b0: c078 d3bd 51b8 113e 91fa dbbd 6ecf 1dbe
000000c0: 6b4d c73c 27bc 49be c194 49bd 5739 cbbd
000000d0: f92f 08bb 57f1 28be 50b0 043d f57e d9bd
000000e0: 50d3 efbc ff47 1f3d 05de a8bd e948 96bc
000000f0: d034 66be cacc de3d ede5 cf3d b0e3 5a3d
00000100: 5676 41bd 7ddb 7dbd 1d60 8f3d 54fa 203e
00000110: 6602 763e 8f88 163d ac9d 383e 9de1 8a3e
00000120: e43d e43c 1c76 76bd e7b4 19be 482a 44be
00000130: 1937 be3d b2aa 5a3e 49e1 7cbd c840 0b3e
00000140: cd5c 313e ebf5 d73c b730 143b 1ee8 e6bd
00000150: 1dc9 44bd d63c b83c df82 edbd b788 e13d
00000160: 8cb7 9e3e 182e 46be 49bc fcbd 7b76 013e
00000170: cd4f a9bd e6ae 0c3e 91ad 823e da96 98bd
00000180: 07cb c83a f4fe 833e 80fd bfbc 42e8 f0bc
00000190: 4bd6 463d 8a11 43bc 3e48 ac3d 52b7 8c3e
000001a0: 08ea 4abe e642 9fbd d9c6 253e fcb2 1abe
000001b0: 37bc 913c 0f4a 21be 04b2 863c 3926 943d
000001c0: 44bb ebbd 69d4 3d3e 870c 963b a217 dabd
000001d0: 335d 833c a8b4 e5bc 1ca5 7f3d d46f 9b3d
000001e0: ecd5 983d 09a2 903d fb56 85bd 97f1 9bbd
000001f0: b5e6 c7bd 6990 d23d 356d 623d add1 913d
00000200: 4026 0c3e bafc 2fbd 1146 4f3e 0eb2 323c
00000210: 0d8d 2bbd 3c3a c73d 5fc8 713e 22b7 66bd
00000220: e7b2 b3bc 938f da3b 5123 3c3d 048b 1a3d
00000230: 47a0 533e 24fd 3b3d abed 343e a700 473e
00000240: 37d1 833d 85e7 043c 7564 0b3e d9c3 dbbb
00000250: 69ba 553c 8f64 b3bd 2711 9e3c 1be1 6d3e
00000260: 8f93 eb3d 69d3 03bd a3c5 25be 623a 953a
00000270: 12e6 83bd 1a6d 53be 797a 97bd 40bd d63d
00000280: 4c90 9f3d e1d4 c93d 01ab e83d 36bf 88bd
00000290: ab6d d5bb 9b12 2bbe 65d8 02bd 0f14 98bd
000002a0: 0ac1 093e 0f1a 3d3d 29a7 2a3d d0ad 1c3e
000002b0: 3ed7 fcbd f416 b83d d408 9dbc 5892 6ebc
000002c0: 8cec 87bd af44 67bd d46d 8f3d ae8f 46bd
000002d0: 3c4a 46bd 6c42 27be 439b d9bd 80a9 12be
000002e0: a165 31be b58d cdbd f527 7ebd d083 4dbd
000002f0: d4af d13d 8a3c f5bd 1c53 1d3e 4179 4e3d
00000300: 03b5 fabc db0a 7e3d 3fba c5bc 2abf e73c
00000310: 5ed3 25be 693c 283e 68a3 28bd 7fb3 3f3e
00000320: 7692 17be 7f19 7cbc f7fe 3a3e d4e8 163e
00000330: 4992 07be 66bb db3d 10e2 04bd c830 c83d
00000340: b636 933d 4a58 5f3c d6b4 ec3d 4627 373e
00000350: 1949 2e3e 7436 0a3e aa56 64bc 07d4 ecbd
00000360: be22 bbbd 5ae2 d1bc 7aa3 d13c 5626 2e3e
00000370: 1698 983e 11bd 093e 81ed c33d 7c08 60be
00000380: 538e 983c e70b 1f3d b827 313d b48a 55bb
00000390: a6c6 0b3c 4105 edbd 38aa 12be 7b23 66bd
000003a0: b954 9fbe 4800 363b 0d12 56bd 642d 30bd
000003b0: 8258 81bd 8cee 463e 530c acbd 28b8 da3d
000003c0: d160 0b3e f265 57be e73a b13d 7e61 643d
000003d0: e7be febd 825f ea3b 6c22 c33d f582 f4bc
000003e0: 1f65 9f3d c9ac 86bc e1a2 4dbc 9771 29be
000003f0: 4f8f 24be 2176 e0bd db6f 313e 9bcb 263e

encoder.0.bias f4 [32]
0.1888023 -0.015924716 -0.01300002 -0.2599828 -0.33644256 -0.108664714 -0.15208904 -0.0286377
0.21561769 0.22750132 0.0074149435 -0.20094945 0.3685148 0.06548419 0.28475448 0.04010743
-0.045677666 -0.07316089 -0.34151077 0.30706853 -0.012412298 0.10741359 -0.21189132 -0.00829489
0.032808743 -0.06313946 0.05852056 -0.045945086 0.06917505 0.009826089 0.27588704 0.034412332
00000000: 6455 413e 8d74 82bc 09fe 54bc 771c 85be
00000010: 3342 acbe 9b8b debd 3bbd 1bbe 9c99 eabc
00000020: e2ca 5c3e 1bf6 683e 0ef9 f23b b1c5 4dbe
00000030: f9ad bc3e 931c 863d 57cb 913e b047 243d
00000040: 8118 3bbd 60d5 95bd 80da aebe 1638 9d3e
00000050: f35c 4bbc a8fb db3d 0afa 58be 4ae7 07bc
00000060: 7662 063d 434f 81bd 41b3 6f3d ea30 3cbd
00000070: a6ab 8d3d 9bfd 203c 1141 8d3e f2f3 0c3d

encoder.2.weight f4 [64, 32, 3, 3]
0.028018473 -0.034813557 -0.022464607 0.035975166 -0.04551548 -0.04397149 -0.003439078 0.019367166
-0.041534793 -0.02842313 0.043685757 0.007642571 -0.057700273 0.08084285 0.039747976 0.030427678
0.049734123 -0.0059002535 0.003683904 -0.030950174 -0.021536082 0.033724245 -0.05139715 0.024529224
0.010213812 0.06320828 -0.072781965 0.0024468026 0.03231698 0.038965322 -0.033861883 0.047093954
0.03736017 0.05100474 0.0005964852 0.04598896 -0.008990641 -0.010523134 -0.015484217 0.0103342775
-0.083929025 0.019513935 -0.011340666 -0.04333099 -0.02386665 0.00852397 -0.028086094 -0.022621717
0.014756256 0.009003775 -0.032855596 -0.02531574 0.04402078 -0.059896827 0.002638051 0.0041929395
0.011082077 0.0140990345 0.026959434 -0.0035637433 -0.013778672 0.07310227 -0.015762165 0.0059948536
0.029372625 0.016090699 -0.0008944331 -0.01536212 0.01595584 0.0043718014 -0.020422174 0.023027193
-0.024350673 0.045844402 -0.06075856 -0.044604637 0.065928586 -0.020775888 -0.06377022 0.0028821712
0.028682742 0.010432006 0.019914962 -0.008374006 -0.044146717 0.07544391 0.0072080186 -0.02925214
-0.05214425 0.041723642 0.014771657 0.00841548 -0.0064049955 -0.015983803 -0.010404632 -0.0064468626
-0.0014305738 -0.037258502 0.056564942 -0.01529725 0.04398461 -0.0037698383 0.014811706 0.068394616
-0.024653362 -0.023936987 -0.05840058 0.042974778 0.0074539427 0.027307319 0.088485934 -0.04053648
0.03305918 0.13310367 0.05061261 -0.038604535 0.11569504 0.00060603983 -0.037148368 -0.013604613
0.04324808 0.007888651 -0.01474876 -0.02749906 -0.0053820014 -0.007935114 -0.012589148 0.03166687
-0.022323517 0.046671696 0.03176585 -0.037847526 -0.05010179 0.048920114 -0.030021666 0.014276762
0.018119877 -0.0067628752 -0.010066868 -0.017003832 0.0062820097 0.04462334 0.07103066 -0.006937007
0.0002049597 -0.037599444 0.040899012 -0.010134908 -0.0955022 -0.025645563 -0.023588765 -0.031833936
0.043796208 0.022900693 0.017948138 0.014117204 -0.023234786 -0.018137993 0.00981893 -0.0039851544
-0.03601294 -0.030806266 0.018572172 -0.014196693 0.019894006 0.011933737 0.009090589 -0.025785364
0.009996222 -0.0021485332 -0.0072696675 0.032788143 -0.042430557 -0.05627236 0.027171627 -0.100074515
-0.02545343 -0.04937637 0.011469888 0.0075635347 0.0012898593 -0.022864547 0.019334419 -0.036051348
0.09851207 -0.022417806 0.038904887 -0.04782569 0.09462757 0.042957574 -0.004108522 0.012167147
-0.028308176 0.011660835 0.06566449 0.019467354 0.08942372 -0.020845952 -0.005042227 0.042572703
-0.04537327 0.024338506 -0.0049884734 0.0645737 0.025524452 0.025552513 0.027985787 0.012660638
0.012832796 0.0086791 -0.007826368 0.059228245 -0.051344693 -0.014342728 0.009428306 0.06361469
-0.020109871 0.07932522 -0.048046187 0.0149117075 0.05479461 0.08425739 0.036814068 -0.010394088
-0.010326182 -0.033378348 0.02701636 -0.024194324 -0.008585158 0.1337296 0.16420254 0.059400998
0.0724045 0.05075418 0.03021859 -0.02135564 0.052025422 -0.012263867 -0.092526294 -0.09704597
-0.010479817 -0.06612069 -0.034831848 -0.006671235 0.0061803954 0.0053408267 0.017150214 -0.08742471
0.037780058 0.0651693 -0.012798433 0.026694866 0.0016572373 0.03813393 -0.021954289 0.032427724
00000000: ff86 e53c a998 0ebd b207 b8bc b25a 133d
00000010: 716e 3abd 731b 34bd 2862 61bb e4a7 9e3c
00000020: 6320 2abd a0d7 e8bc d6ef 323d 886e fa3b
00000030: 1f57 6cbd f090 a53d c6ce 223d 7743 f93c
00000040: 02b6 4b3d ea56 c1bb a76d 713b 388b fdbc
00000050: 706c b0bc 6f22 0a3d d185 52bd 83f1 c83c
00000060: d557 273c 5873 813d b60e 95bd 895a 203b
00000070: cf5e 043d 1a9a 1f3d c2b2 0abd 97e5 403d
00000080: fa06 193d 59ea 503d 725d 1c3a eb5e 3c3d
00000090: 7b4d 13bc 3969 2cbc 83b1 7dbc 1a51 293c
000000a0: fbe2 abbd b0db 9f3c 33ce 39bc d67b 31bd
000000b0: fe83 c3bc 1fa8 0b3c cf14 e6bc 2e51 b9bc
000000c0: 39c4 713c 9284 133c 9793 06bd f462 cfbc
000000d0: 224f 343d 6056 75bd 27e3 2c3b ed64 893b
000000e0: 9a91 353c a3ff 663c 08da dc3c b18d 69bb
000000f0: f0bf 61bc a5b6 953d a81f 81bc 7a70 c43b
00000100: dc9e f03c a4d0 833c 6478 6aba 67b1 7bbc
00000110: d2b5 823c 5441 8f3b 674c a7bc 86a3 bc3c
00000120: 107b c7bc 57c7 3b3d f8dd 78bd 5ab3 36bd
00000130: 9105 873d 3232 aabc f699 82bd cfe2 3c3b
00000140: 12f8 ea3c 01eb 2a3c b424 a33c 2033 09bc
00000150: 30d3 34bd 5682 9a3d 3e31 ec3b 2fa2 efbc
00000160: 3695 55bd 69e6 2a3d d204 723c 15e1 093c
00000170: ffe0 d1bb 77f0 82bc 3178 2abc 3440 d3bb
00000180: 1782 bbba 5f9c 18bd a4b0 673d 51a1 7abc
00000190: 3529 343d 640f 77bb ccac 723c 7a12 8c3d
000001a0: d9f5 c9bc 8017 c4bc 7235 6fbd 5206 303d
000001b0: 3440 f43b 99b3 df3c 1d38 b53d 9409 26bd
000001c0: 1069 073d 544c 083e 2b4f 4f3d ca1f 1ebd
000001d0: 85f1 ec3d a5de 1e3a e328 18bd e2e5 5ebc
000001e0: e624 313d 673f 013c c8a4 71bc b545 e1bc
000001f0: 805b b0bb 4802 02bc b742 4ebc 1fb5 013d
00000200: cfdf b6bc d22a 3f3d e81c 023d 0206 1bbd
00000210: 8937 4dbd 7560 483d ffef f5bc 14e9 693c
00000220: 2370 943c 1c9b ddbb 81ef 24bc 9f4b 8bbc
00000230: 51d9 cd3b f7c6 363d 8678 913d d54f e3bb
00000240: 73ea 5639 e001 1abd b985 273d e30c 26bc
00000250: a896 c3bd a516 d2bc 3a3d c1bc 4d64 02bd
00000260: a763 333d 3c9a bb3c f907 933c d84b 673c
00000270: e156 bebc 2196 94bc 94df 203c e695 82bb
00000280: 4e82 13bd 6c5d fcbc ab24 983c 3f99 68bc
00000290: c1f8 a23c b985 433c b2f0 143c d43b d3bc
000002a0: 32c7 233c 68ce 0cbb 6436 eebb dc4c 063d
000002b0: aacb 2dbd d97d 66bd 0897 de3c def3 ccbd
000002c0: b683 d0bc e03e 4abd 32ec 3b3c 87d7 f73b
000002d0: 7f10 a93a 6e4e bbbc 3763 9e3c 94aa 13bd
000002e0: b2c0 c93d 8ca5 b7bc bb5a 1f3d dfe4 43bd
000002f0: 19cc c13d 48f4 2f3d c8a0 86bb b758 473c
00000300: 8ce6 e7bc 160d 3f3c 1b7b 863d 007a 9f3c
00000310: c923 b73d 21c5 aabc 4439 a5bb b760 2e3d
00000320: 52d9 39bd 8c61 c73c 5976 a3bb 373f 843d
00000330: a818 d13c 8153 d13c 7342 e53c 916e 4f3c
00000340: a640 523c c932 0e3c 2b3a 00bc 5199 723d
00000350: d04e 52bd c3fd 6abc 2e79 1a3c 6b48 823d
00000360: 75bd a4bc 4375 a23d 14cc 44bd 3c50 743c
00000370: 5070 603d 238f ac3d 59ca 163d f74b 2abc
00000380: 252f 29bc bcb7 08bd 6a51 dd3c 2d33 c6bc
00000390: c3a8 0cbc 6af0 083e b624 283e 764e 733d
000003a0: cf48 943d 9de3 4f3d fa8c f73c 06f2 aebc
000003b0: 9c18 553d 63ee 48bc 6d7e bdbd 0ac0 c6bd
000003c0: 8ab3 2bbc 496a 87bd d7ab 0ebd 609a dabb
000003d0: ea84 ca3b 1a02 af3b 9b7e 8c3c ba0b b3bd
000003e0: 43bf 1a3d 7b77 853d 85b0 51bc 31af da3c
000003f0: a837 d93a 5332 1c3d 7bd9 b3bc efd2 043d

encoder.2.bias f4 [64]
0.016450824 0.04985583 0.058124434 -0.051454537 0.007951962 0.0699824 0.019230578 0.052262306
0.04289958 0.05149595 -0.1487248 0.07246302 0.035975292 -0.07609502 0.03331836 0.030645624
0.03677439 0.045818083 -0.029244853 -0.16674879 -0.0027878955 -0.013461464 0.08465367 0.005015722
0.04181167 -0.14747892 0.09221439 0.037149604 0.01310743 0.01730406 -0.035930246 0.02308368
0.059479687 0.039046824 0.049602125 0.031053789 -0.025521783 -0.023184206 0.014516945 0.037156474
-0.17280357 0.020776717 -0.06269515 0.04930722 0.04062145 -0.0009868405 -0.19461958 -0.17521669
0.032980014 -0.13079803 -0.047549292 0.084000126 -0.027658444 0.08462446 0.045634907 -0.14799325
0.04287777 0.036719292 -0.03362015 -0.115939446 -0.12693909 -0.09685645 -0.0037290175 0.025661664
00000000: e1c3 863c a035 4c3d e313 6e3d fec1 52bd
00000010: f248 023c ef52 8f3d 7289 9d3c 0011 563d
00000020: 78b7 2f3d 6bed 523d 504b 18be 7e67 943d
00000030: d45a 133d b5d7 9bbd d578 083d 880c fb3c
00000040: bea0 163d beab 3b3d e792 efbc 32c0 2abe
00000050: 20b5 36bb 798d 5cbc e75e ad3d ed5a a43b
00000060: b742 2b3d b704 17be e6da bc3d 2f2a 183d
00000070: 8cc0 563c 3ec1 8d3c 982b 13bd fc19 bd3c
00000080: f9a0 733d 90ef 1f3d 992b 4b3d 8464 fe3c
00000090: 0f13 d1bc ceec bdbc 7bd8 6d3c 6331 183d
000000a0: 6bf3 30be ef33 aa3c 5166 80bd 5ef6 493d
000000b0: ad62 263d df58 81ba 5b4a 47be 016c 33be
000000c0: 0d16 073d ebef 05be 0cc3 42bd 4208 ac3d
000000d0: f693 e2bc 974f ad3d abeb 3a3d 8b8b 17be
000000e0: 9aa0 2f3d f866 163d 48b5 09bd a971 edbd
000000f0: 52fc 01be ad5c c6bd 8862 74bb 6938 d23c

encoder.4.weight f4 [128, 64, 3, 3]
0.00037677586 0.0010920388 0.0013354662 -0.007587223 -0.006960654 -0.005191247 -0.011085277 -0.01082903
-0.009563341 -0.021445485 -0.02270195 -0.021474253 -0.023333585 -0.02410084 -0.023839097 -0.023396464
-0.02357978 -0.023118468 -0.01725543 -0.017243735 -0.014119873 -0.023219721 -0.023185426 -0.02078088
-0.023360265 -0.02302551 -0.021745857 -0.023581011 -0.02462494 -0.023563366 -0.025359225 -0.025932955
-0.026194856 -0.025838694 -0.02535023 -0.025844892 -0.012525642 -0.013244312 -0.011848976 -0.021805258
-0.022178425 -0.020750465 -0.021820119 -0.022101527 -0.020715185 -0.01833596 -0.019392649 -0.01729608
-0.022994164 -0.022998992 -0.021729162 -0.023320299 -0.023434458 -0.022300484 -0.023573013 -0.024188714
-0.02260347 -0.025673114 -0.025004735 -0.025072034 -0.02436154 -0.024519578 -0.024096025 -0.019968826
-0.022505397 -0.022413218 -0.024398092 -0.02512881 -0.026201772 -0.021899404 -0.022376653 -0.022024384
-0.016810542 -0.017817587 -0.016366431 -0.023146877 -0.023291243 -0.022643095 -0.022859927 -0.02362014
-0.023643455 -0.023940995 -0.025236212 -0.025362987 -0.02593048 -0.02602613 -0.026810462 -0.023631172
-0.024066897 -0.023925351 0.0011099197 0.0004859568 0.00012574057 0.00029565228 -0.00037763634 -0.0007247338
-0.00083169393 -0.0009505845 -0.0008386364 -0.02383327 -0.024588743 -0.023825848 -0.026047625 -0.026097309
-0.025287308 -0.025321744 -0.025377145 -0.02477522 -0.017288074 -0.018522497 -0.016835524 -0.021396736
-0.022253841 -0.021397624 -0.022051435 -0.02246822 -0.022090629 -0.001517616 -0.0042449553 -0.00074786117
-0.01114238 -0.012705506 -0.009944496 -0.008317233 -0.010235933 -0.0057166866 -0.01643019 -0.017346764
-0.015978865 -0.021776766 -0.021532662 -0.020249793 -0.022306805 -0.021932123 -0.020785514 -0.019874038
-0.020339841 -0.018977843 -0.021907225 -0.022269743 -0.021752408 -0.023182202 -0.023012176 -0.023256967
-0.024544112 -0.025797606 -0.025020588 -0.02562366 -0.02592222 -0.02626254 -0.024418324 -0.024248589
-0.024020113 -0.006311524 -0.008556297 -0.0077030603 -0.017664498 -0.019027794 -0.01680233 -0.017334728
-0.018235063 -0.016140617 -0.016662002 -0.01747882 -0.015433206 -0.02156396 -0.022391278 -0.020994782
-0.022232939 -0.022825707 -0.021857252 -0.0043515065 -0.0069751265 -0.004108935 -0.016252972 -0.018206434
-0.016063374 -0.009935738 -0.012121914 -0.0075324588 -0.020278038 -0.021354768 -0.020561757 -0.023014776
-0.022741549 -0.021986956 -0.024032116 -0.023761222 -0.022946522 -0.018012036 -0.020037614 -0.018892538
-0.023550557 -0.024609726 -0.024001196 -0.023354948 -0.023375353 -0.022676215 -0.016362652 -0.017232351
-0.0142688835 -0.022311786 -0.022422884 -0.020463835 -0.024424616 -0.024734922 -0.023206295 -0.011163748
-0.0127169825 -0.010324193 -0.016657896 -0.017994324 -0.016503392 -0.016695436 -0.017574497 -0.016371725
-0.013484888 -0.014244335 -0.0118046105 -0.019480886 -0.018794669 -0.017657522 -0.019731672 -0.019005792
-0.017974628 0.002912057 0.0033905443 0.0034563672 0.0018830162 0.0020559004 0.00242053 0.004633549
0.0046303542 0.004273976 -0.022425532 -0.022850944 -0.02138182 -0.024406819 -0.024379732 -0.023793386
-0.02455892 -0.024315543 -0.024109922 0.002729612 0.0028274325 0.0020985075 0.0020674104 0.0022704538
0.0026856354 0.00095799065 0.0007904925 0.001085555 -0.02033319 -0.021433298 -0.019930443 -0.02448251
00000000: 008a c539 be22 8f3a cf0a af3a 3d9e f8bb
00000010: 3316 e4bb 561b aabb 069f 35bc 3e6c 31bc
00000020: 8faf 1cbc 71ae afbc 71f9 b9bc c6ea afbc
00000030: 1326 bfbc 206f c5bc 364a c3bc f1a9 bfbc
00000040: 622a c1bc f162 bdbc 425b 8dbc bc42 8dbc
00000050: 0a57 67bc 4937 bebc 5def bdbc aa3c aabc
00000060: 075e bfbc ff9f bcbc 5e24 b2bc f72c c1bc
00000070: 3eba c9bc f607 c1bc 26be cfbc 5971 d4bc
00000080: 9896 d6bc abab d3bc 49ab cfbc abb8 d3bc
00000090: 5a38 4dbc acfe 58bc 3522 42bc f1a0 b2bc
000000a0: 87af b5bc e1fc a9bc 1bc0 b2bc 430e b5bc
000000b0: e4b2 a9bc 4c35 96bc 55dd 9ebc 82b0 8dbc
000000c0: 425e bcbc 6268 bcbc 5b01 b2bc 360a bfbc
000000d0: 9ff9 bfbc 81af b6bc 311c c1bc 6927 c6bc
000000e0: ea2a b9bc 6c50 d2bc bbd6 ccbc de63 cdbc
000000f0: da91 c7bc 48dd c8bc 0765 c5bc aa95 a3bc
00000100: 3d5d b8bc ed9b b7bc 82de c7bc efda cdbc
00000110: 19a5 d6bc 6166 b3bc 3e4f b7bc 7b6c b4bc
00000120: 43b6 89bc 30f6 91bc e512 86bc 859e bdbc
00000130: 47cd bebc 037e b9bc be44 bbbc 067f c1bc
00000140: ebaf c1bc e81f c4bc 2cbc cebc 0ac6 cfbc
00000150: 286c d4bc c034 d5bc 9da1 dbbc 2996 c1bc
00000160: f127 c5bc 19ff c3bc ba7a 913a 05c8 fe39
00000170: 3ad9 0339 c701 9b39 7efd c5b9 10fc 3dba
00000180: 0906 5aba a530 79ba f0d7 5bba fd3d c3bc
00000190: 556e c9bc 6d2e c3bc d461 d5bc 06ca d5bc
000001a0: 5427 cfbc 8c6f cfbc bbe3 cfbc 67f5 cabc
000001b0: b89f 8dbc 7ebc 97bc a7ea 89bc 3548 afbc
000001c0: b04d b6bc 124a afbc 36a5 b4bc 460f b8bc
000001d0: 68f7 b4bc beea c6ba 4419 8bbb 1d0c 44ba
000001e0: 878e 36bc c12a 50bc 3dee 22bc 0145 08bc
000001f0: 9db4 27bc 0b53 bbbb 9b98 86bc cd1a 8ebc
00000200: 1ce6 82bc 3065 b2bc 4465 b0bc e5e2 a5bc
00000210: c3bc b6bc ffaa b3bc 6246 aabc e1ce a2bc
00000220: bd9f a6bc 6c77 9bbc c876 b3bc 096f b6bc
00000230: 1b32 b2bc 9ae8 bdbc 0884 bcbc 6585 bebc
00000240: bc10 c9bc 8055 d3bc faf7 ccbc b6e8 d1bc
00000250: d65a d4bc 8a24 d7bc f008 c8bc faa4 c6bc
00000260: d4c5 c4bc e7d0 cebb b62f 0cbc f469 fcbb
00000270: 23b5 90bc 2de0 9bbc 0aa5 89bc 8f01 8ebc
00000280: b361 95bc 5439 84bc c07e 88bc be2f 8fbc
00000290: 8fdb 7cbc e7a6 b0bc ea6d b7bc 40fd abbc
000002a0: da21 b6bc fafc babc fb0d b3bc 1597 8ebb
000002b0: 9a8f e4bb 3fa4 86bb f424 85bc a925 95bc
000002c0: 5697 83bc 81c9 22bc fe9a 46bc d8d2 f6bb
000002d0: 211e a6bc 32f0 aebc 2171 a8bc 7c89 bcbc
000002e0: 7c4c babc fd1d b4bc 00df c4bc e5a6 c2bc
000002f0: 58fa bbbc fa8d 93bc ec25 a4bc 86c4 9abc
00000300: 19ed c0bc 569a c9bc 289e c4bc e052 bfbc
00000310: ab7d bfbc 78c3 b9bc f80a 86bc dc2a 8dbc
00000320: 09c8 69bc 35c7 b6bc 32b0 b7bc c6a3 a7bc
00000330: 2216 c8bc e4a0 cabc 211b bebc 27e8 36bc
00000340: e45a 50bc ce26 29bc 2476 88bc d568 93bc
00000350: 1f32 87bc dec4 88bc 64f8 8fbc ff1d 86bc
00000360: b8ef 5cbc 1261 69bc 2068 41bc 6196 9fbc
00000370: 47f7 99bc 82a6 90bc 51a4 a1bc 09b2 9bbc
00000380: 873f 93bc 36d8 3e3b e533 5e3b 3884 623b
00000390: 8acf f63a 49bc 063b c1a1 1e3b 07d5 973b
000003a0: 3aba 973b b60c 8c3b c0b5 b7bc e731 bbbc
000003b0: ed28 afbc cff0 c7bc 01b8 c7bc 59ea c2bc
000003c0: ca2f c9bc 6431 c7bc 2c82 c5bc 4ae3 323b
000003d0: 724c 393b 1d87 093b 647d 073b e5cb 143b
000003e0: 7c01 303b aa21 7b3a 0e39 4f3a 2e49 8e3a
000003f0: ca91 a6bc e294 afbc 2b45 a3bc 8b8f c8bc

encoder.4.bias f4 [128]
-0.031130232 -0.04744308 0.0062769805 -0.021022024 -0.020153994 0.04572378 0.017561972 -0.054311745
-5.0079756e-15 0.021911206 -0.031888474 -0.014818585 0.013273779 0.051149853 -0.11722134 -0.022383839
-0.014968988 0.018483568 0.05477069 -0.0076279556 0.029032378 -0.027513165 -0.04052518 0.051339276
0.03256637 0.031107098 0.030400515 -0.0066397786 0.021891829 -0.040739167 0.023698462 -0.009028383
0.017963363 0.0025645578 0.051735517 -0.074557714 0.047592252 0.033896014 -0.054505635 0.0029149677
0.0025633962 -2.0062675e-05 -0.018340673 -0.0043651923 0.0015461474 -0.019831978 0.029823327 -0.01964158
-0.009217593 -0.002226097 0.003698115 0.044833515 0.027723191 0.033779528 0.015091168 -0.08012852
-0.13389891 0.011506724 0.03219173 -0.018224312 0.061406706 -0.044928413 0.035826843 0.029791644
0.038643397 0.0037251897 -0.05636464 0.043137494 -0.0029184492 -0.01384484 -0.010602879 0.027252916
0.09410907 0.015153733 0.04491962 0.021747073 -0.019618347 0.027629215 -0.122634955 0.04151156
-1.8481653e-18 -0.0063781827 -0.10043435 -0.0861383 -0.030470314 0.058355387 -0.03199708 -0.017153315
0.015627924 -0.032807335 0.0073495777 -0.044896215 0.0005317877 0.022569258 0.030443322 0.024177441
-0.015112204 -0.014234311 -0.018400969 0.008783106 -0.042569336 0.021815347 0.04161024 -0.0027945205
-0.045455895 0.036073107 0.012480999 -0.14909314 -0.009566437 0.048992306 -0.107323274 0.01963253
-3.4611698e-31 -0.013301682 -0.011000863 0.07167708 0.033236254 0.025610676 -0.021391928 0.02855931
-0.052204687 0.035536543 -0.01758854 -0.09302184 0.0049252785 -0.037698783 0.027039735 -0.040104274
00000000: d404 ffbc ad53 42bd 21af cd3b 6136 acbc
00000010: fd19 a5bc dc48 3b3d 20de 8f3c fe75 5ebd
00000020: 6c6e b4a7 217f b33c 7d9d 02bd a6c9 72bc
00000030: 447a 593c 8282 513d be11 f0bd 505e b7bc
00000040: 7c40 75bc da6a 973c 3b57 603d eef3 f9bb
00000050: 4fd5 ed3c 4a63 e1bc bbfd 25bd 2249 523d
00000060: 5064 053d 50d4 fe3c 800a f93c 8092 d9bb
00000070: 7e56 b33c 1dde 26bd 4723 c23c c8eb 13bc
00000080: e727 933c 2412 283b 9fe8 533d b7b1 98bd
00000090: 18f0 423d 8cd6 0a3d 4d41 5fbd 0b09 3f3b
000000a0: a7fe 273b 444c a8b7 2e3f 96bc e309 8fbb
000000b0: 19a8 ca3a ac76 a2bc 0d50 f43c 61e7 a0bc
000000c0: 6305 17bc b6e3 11bb 135c 723b 59a3 373d
000000d0: bf1b e33c 675c 0a3d f240 773c 6c1a a4bd
000000e0: cc1c 09be b386 3c3c 7adb 033d 274b 95bc
000000f0: 9985 7b3d db06 38bd 2bbf 123d 9b0d f43c
00000100: 8a48 1e3d 5022 743b 9cde 66bd f1b0 303d
00000110: 7443 3fbb 78d5 62bc b3b7 2dbc 8241 df3c
00000120: 42bc c03d 5d47 783c a3fd 373d eb26 b23c
00000130: a8b6 a0bc aa56 e23c 0928 fbbd 0708 2a3d
00000140: db5e 08a2 1300 d1bb 86b0 cdbd 4769 b0bd
00000150: e19c f9bc 0f06 6f3d 5f0f 03bd 1c85 8cbc
00000160: 2206 803c fc60 06bd bad4 f03b 18e5 37bd
00000170: ab67 0b3a 2ae3 b83c 4664 f93c c50f c63c
00000180: 2d99 77bc 0737 69bc a1bd 96bc 04e7 0f3c
00000190: 2f5d 2ebd 19b6 b23c 806f 2a3d 4624 37bb
000001a0: f62f 3abd 65c1 133d 1b7d 4c3c dfab 18be
000001b0: 8cbc 1cbc 28ac 483d 4ecc dbbd 66d4 a03c
000001c0: 8ca4 e08c 4cef 59bc f73c 34bc 6fcb 923d
000001d0: bd22 083d 7bcd d13c 203e afbc 37f5 e93c
000001e0: 95d4 55bd c48e 113d d815 90bc 3c82 bebd
000001f0: 3b64 a13b 0a6a 1abd 6f82 dd3c 6144 24bd

decoder.0.weight f4 [128, 64, 3, 3]
0.00086556375 0.00045178307 0.0008997593 0.0022631062 0.0018684193 0.0022961763 0.0021439237 0.0021512231
0.0026402029 0.00011169894 0.00027750854 0.00020535338 0.00026256428 0.00029425856 0.00032954972 0.00019146748
0.000107827116 0.00010883601 -0.00087129883 -0.0009527731 -0.0003504178 -0.0019362636 -0.0019064136 -0.000954284
-0.001727063 -0.0020540173 -0.0013941969 0.00049727235 0.0005199085 0.0006174686 0.0005074592 0.0005565055
0.0004663253 -0.0018459453 -0.0017512584 -0.0020894005 8.684443e-05 0.00012427622 3.9395767e-05 -8.757246e-05
-0.00011428151 -0.00026567472 0.00011015178 0.000113075555 -0.000113942166 0.00015455943 0.00044582356 0.00028958873
0.00050971657 0.0006785839 0.00043664168 0.00095963175 0.0013214921 0.0009093643 5.36633e-40 5.37207e-40
-5.31905e-40 5.40507e-40 -5.119e-40 5.56083e-40 -5.45286e-40 -5.1008e-40 -5.23074e-40 0.00027154083
6.925532e-05 0.00014568114 -0.0037361057 -0.0044437605 -0.0036607333 -0.006012833 -0.0072760913 -0.0069754445
-0.0007232007 -0.00044316315 0.00010383918 0.00013665954 0.00014674307 0.00052874046 -0.0002044545 -0.00032145556
0.00033667174 -0.0006330146 -0.0020777078 -0.0018754831 -0.00068149593 -0.0021704372 -0.0017110687 -0.0011277023
-0.002422596 -0.0018230919 2.8548218e-06 0.00015301052 0.00015836288 1.3906465e-05 -0.00052161544 0.00024689382
-0.0008140271 -0.00013047286 -0.0014561686 -0.0013766101 -0.0012081554 -0.0010782557 -8.228972e-05 0.00033629936
-0.00036238224 0.00031105336 0.00067128165 2.635947e-05 0.00034147705 5.7359157e-05 0.0011337451 0.004032723
0.0037710962 0.0046288515 0.005626387 0.00557691 0.006217661 -4.90949e-40 5.51306e-40 -5.31126e-40
-5.78654e-40 -5.75506e-40 -5.17689e-40 5.20416e-40 6.18158e-40 -5.51627e-40 0.0049920264 0.0058417013
0.0046034562 0.004562429 0.0054612188 0.0042702146 0.0038713492 0.0047773747 0.0035242985 0.00096866966
0.0014984882 0.0015511895 0.0014829781 0.0015179362 0.001734286 0.0020403685 0.0023926124 0.0027829558
-0.0003335339 -0.0006228474 -0.0006954636 -0.00059165445 -0.0010921378 -0.0012261115 -0.0009341494 -0.001709488
-0.0023067452 3.5639275e-07 4.1731608e-05 3.935445e-05 -1.9841174e-05 6.522296e-05 7.058307e-05 1.0722707e-06
-9.264827e-06 2.397309e-05 0.00073495804 0.0010940545 0.00068002415 0.0073591545 0.008281134 0.0075488933
0.011261331 0.012024146 0.011223225 -0.0064426064 -0.0068411427 -0.0051568868 -0.0052396003 -0.005528734
-0.003952584 -0.0051706363 -0.005412963 -0.0038310753 -0.00097329164 -0.0009119576 -0.0010729565 -0.0014560397
-0.0014578277 -0.0015006444 0.00044296996 0.0005857826 0.00021289011 0.007074602 0.007873758 0.0065819486
0.0062587387 0.00727821 0.006383889 0.0056192316 0.0065131234 0.005349837 -8.0050295e-06 -7.496661e-05
-5.616019e-05 -9.3963485e-05 -0.00014766189 -3.060043e-05 6.958734e-05 0.000223912 0.00021573406 -0.0010570784
-0.0014985591 -0.0014030345 -0.0014666734 -0.0020635715 -0.001739821 -0.00051275943 -0.0011809623 -0.00092576165
0.00027133618 -0.0006381334 -0.00082535716 -0.0014890552 -0.0016457065 -0.0014650073 -0.0010238601 -0.0016534689
-0.0015029188 -0.00032780264 -0.0011538845 -0.0006035404 0.0019996236 0.0010519624 -0.0013106085 0.0034597702
0.0027840973 0.00032818408 -0.000645884 0.000183575 0.00021477856 0.00087968993 0.0016760934 0.0017151443
0.003309558 0.004014472 0.0034033451 0.00035629622 0.00036853336 0.000530054 -0.00043491303 -0.00023509296
0.00069050904 -0.00022458938 -0.00034160193 -0.0004978191 -0.00054313446 -0.0008131598 -0.0008891107 9.4354386e-05
00000000: 00e7 623a 4cdd ec39 d3dd 6b3a 9f50 143b
00000010: c0e5 f43a 727b 163b 1281 0c3b 89fb 0c3b
00000020: 4107 2d3b e93f ea38 917e 9139 2154 5739
00000030: c8a8 8939 b746 9a39 6ac7 ac39 a9c4 4839
00000040: 3e21 e238 e33e e438 e067 64ba 85c3 79ba
00000050: 48b8 b7b9 3aca fdba a0e0 f9ba ea28 7aba
00000060: 9e5e e2ba b19c 06bb 7cbd b6ba 625b 023a
00000070: 784a 083a 9edd 213a 0307 053a 74e2 113a
00000080: 1f7d f439 a5f3 f1ba 7b8a e5ba 53ee 08bb
00000090: 4020 b638 2550 0239 e23c 2538 1ba7 b7b8
000000a0: 6baa efb8 424a 8bb9 4901 e738 fa22 ed38
000000b0: 3cf4 eeb8 3b11 2239 6dbd e939 f1d3 9739
000000c0: 809e 053a ffe2 313a 0eed e439 cc8f 7b3a
000000d0: eb35 ad3a 6862 6e3a ead7 0500 84d9 0500
000000e0: bcca 0580 b7e2 0500 f892 0580 220e 0600
000000f0: 09f0 0580 e58d 0580 1eb2 0580 985d 8e39
00000100: 2b3d 9138 fcc1 1839 74d9 74bb f79c 91bb
00000110: eae8 6fbb 4d07 c5bb 476c eebb 4592 e4bb
00000120: 2d95 3dba 5a58 e8b9 3cc4 d938 444c 0f39
00000130: 0bdf 1939 2c9b 0a3a d662 56b9 0989 a8b9
00000140: 5183 b039 e4f0 25ba 272a 08bb c5d2 f5ba
00000150: 6ba6 32ba e53d 0ebb f045 e0ba 69cf 93ba
00000160: 6bc4 1ebb d0f4 eeba 7795 3f36 7371 2039
00000170: 360e 2639 d04f 6937 05bd 08ba 8771 8139
00000180: 6f64 55ba 8bcf 08b9 e9dc beba 5f6f b4ba
00000190: f85a 9eba 4254 8dba f592 acb8 5651 b039
000001a0: 1ffe bdb9 e014 a339 f3f8 2f3a 881e dd37
000001b0: 4608 b339 ed94 7038 2c9a 943a ef24 843b
000001c0: 7f24 773b 9fad 973b 8e5d b83b 83be b63b
000001d0: 85bd cb3b 9158 0580 d100 0600 90c8 0580
000001e0: 0d4d 0680 4744 0680 1ba3 0580 b5aa 0500
000001f0: 2cbb 0600 b601 0680 2794 a33b be6b bf3b
00000200: 97d8 963b 6e80 953b 06f4 b23b 28ed 8b3b
00000210: 76b6 7d3b 868b 9c3b ebf7 663b 52ee 7d3a
00000220: ec68 c43a 4851 cb3a 7d60 c23a 7df5 c63a
00000230: fb50 e33a b4b7 053b 60cd 1c3b 4062 363b
00000240: 2ade aeb9 9546 23ba c64f 36ba 4219 1bba
00000250: 1026 8fba 7ab5 a0ba b4e1 74ba e610 e0ba
00000260: c32c 17bb 3f56 bf34 f908 2f38 8510 2538
00000270: 9970 a6b7 4fc8 8838 ff05 9438 f1ea 8f35
00000280: 2170 1bb7 d219 c937 33aa 403a 6166 8f3a
00000290: a643 323a 1025 f13b 98ad 073c b55c f73b
000002a0: 7281 383c ec00 453c 9ee1 373c 801c d3bb
000002b0: aa2b e0bb 1afb a8bb f4b0 abbb 622a b5bb
000002c0: ae84 81bb 716e a9bb 3a5f b1bb c712 7bbb
000002d0: 7f24 7fba 7010 6fba 72a2 8cba 96d8 beba
000002e0: 9514 bfba 45b1 c4ba 6c3e e839 348f 193a
000002f0: 413b 5f39 10d2 e73b ef00 013c 63ad d73b
00000300: 1b16 cd3b 0d7e ee3b f12f d13b 8821 b83b
00000310: 0a6c d53b af4d af3b 574d 06b7 6437 9db8
00000320: 8b8d 6bb8 430e c5b8 b0d5 1ab9 f658 00b8
00000330: 6bef 9138 ebc9 6a39 ac36 6239 aa8d 8aba
00000340: 4d6b c4ba 07e6 b7ba 653d c0ba fc3c 07bb
00000350: b50a e4ba b46a 06ba 85ca 9aba d0ae 72ba
00000360: 2042 8e39 6848 27ba c85c 58ba 672c c3ba
00000370: bfb4 d7ba 7d05 c0ba 0b33 86ba 36b9 d8ba
00000380: 96fd c4ba eddc abb9 f03d 97ba e936 1eba
00000390: 1e0c 033b 00e2 893a b9c8 abba 50bd 623b
000003a0: 6775 363b 1f10 ac39 8b50 29ba 0a7e 4039
000003b0: 2e36 6139 fe9a 663a 5db0 db3a b1ce e03a
000003c0: 2be5 583b d58b 833b a80a 5f3b 45cd ba39
000003d0: b637 c139 52f3 0a3a 0a05 e4b9 4983 76b9
000003e0: 4703 353a c17f 6bb9 0919 b3b9 1380 02ba
000003f0: 2361 0eba 3b2a 55ba 3613 69ba 20e0 c538

decoder.0.bias f4 [64]
0.033514168 0.0031784968 -0.010819877 0.029175265 0.0007154783 -0.0072600637 -6.218874e-32 0.052355845
0.098901205 0.04846631 -0.095653675 -0.008965935 0.031151604 -2.608525e-06 0.02626269 0.08900168
0.04729348 -0.005096818 0.024705458 0.027074015 0.015567832 -0.012019109 -0.058061797 -0.018905278
0.0067017386 0.02449876 0.020730011 0.004141617 0.03020765 -1.9145414e-09 0.0030874189 -0.010456029
-7.859595e-18 0.04871715 -0.066515915 -0.009973068 0.04472516 0.036842972 -0.0132988645 -0.0031514831
-0.018034002 -0.008975543 0.105077825 0.0026678087 0.015668018 -4.653968e-13 0.02359314 0.01986632
-0.06586693 0.018553086 -0.0073044184 -0.034937337 -1.7878705e-06 0.08503997 0.00744023 0.013559706
-0.0050775353 -0.16827136 -0.011989742 0.027130047 0.05222008 -0.024133664 0.0077718277 0.0082786875
00000000: 2746 093d 544e 503b da45 31bc f700 ef3c
00000010: f08e 3b3a d4e5 edbb 8273 a18b 1573 563d
00000020: b78c ca3d 9c84 463d 13e6 c3bd dbe5 12bc
00000030: a631 ff3c 1e0e 2fb6 da24 d73c 8346 b63d
00000040: cfb6 413d 3503 a7bb 1a63 ca3c 53ca dd3c
00000050: 3810 7f3c cceb 44bc 35d2 6dbd 3edf 9abc
00000060: 429a db3b a0b1 c83c fcd1 a93c 67b6 873b
00000070: 0976 f73c f890 03b1 4b56 4a3b c44f 2bbc
00000080: e3fb 10a3 a28b 473d 7f39 88bd 1466 23bc
00000090: bb31 373d a8e8 163d 7be3 59bc 1d89 4ebb
000000a0: 0bbc 93bc 280e 13bc 0b33 d73d 67d6 2e3b
000000b0: 375a 803c 60ff 02ab 6746 c13c b1be a23c
000000c0: 3ee5 86bd a4fc 973c e759 efbb 741a 0fbd
000000d0: c3f6 efb5 7029 ae3d 2ccd f33b 8729 5e3c
000000e0: 7461 a6bb 544f 2cbe 9f70 44bc d53f de3c
000000f0: b9e4 553d f6b3 c5bc d1aa fe3b 55a3 073c

decoder.2.weight f4 [64, 32, 4, 4]
-4.92269e-40 0.012543651 -4.95732e-40 -0.045944434 -0.017095786 5.56091e-08 -0.0019495989 5.473009e-08
-4.94922e-40 0.051087275 -4.91536e-40 0.010229102 -0.0073912926 -8.148987e-18 0.012437534 -7.516649e-17
-0.0043176264 0.024713779 -0.004141172 0.040005196 0.008407903 0.021927029 0.002982353 0.016572287
-0.0048260237 -0.028771875 -0.0048839957 0.028626183 -0.021801762 0.022102611 -0.016588962 -0.014766351
-0.021188442 0.008391868 0.015109185 -0.0072105853 -0.024648124 -5.16293e-40 -0.0142250825 5.0101e-40
0.04316387 -0.029203478 0.040587064 0.026592338 -0.03315117 -5.06977e-40 -0.005796986 -4.96542e-40
0.010837687 0.005991548 0.014926496 0.012407899 5.14697e-40 -0.032040037 4.97524e-40 0.006531531
0.010649898 0.046095133 0.009047941 -0.006449621 -4.91868e-40 0.008829586 4.96933e-40 0.005561628
-0.0012095015 0.0026968822 -0.00168246 0.00045071915 -0.004074418 -0.025849978 -0.041398104 0.018578969
-0.00043770776 0.011702279 0.016597822 -0.0027307456 -0.001268582 -0.009759015 0.03646908 0.0068320762
-0.0018577571 -0.014114849 0.045245398 0.007240643 0.061973132 -0.05031797 -0.008635653 0.012925079
-0.0155778285 -0.057028912 -0.020375872 0.017482935 -0.011784107 -0.009344532 0.022551512 -0.010275753
-0.007751468 0.04253153 0.013199511 0.015531721 -0.0050117075 0.071990035 0.09867565 0.03385905
0.040329866 -0.01090873 -0.06599818 0.01831693 -0.016239706 -0.013776227 -0.024955237 -0.03521233
-0.012230228 -0.00056438084 -0.0026283867 -3.6668283e-05 0.012537046 -0.0036924446 -0.00016951577 -0.0009492173
0.04005691 -0.0054534813 0.055148747 -0.003845686 -0.010036722 -0.0016519012 0.011743073 -6.216648e-05
0.009837393 -0.027461104 -0.009283837 -0.0078523215 0.0050201695 -0.002771335 -0.026730066 -0.02606277
0.0011775468 0.06359777 -0.029222803 -0.0074077277 0.013452325 0.006811977 0.04007905 -0.010156166
-0.035097793 0.011230732 0.0114607755 0.012286916 0.004484582 0.07419984 -0.015404742 0.02979198
0.011219078 0.02493729 -0.021649221 0.013090149 0.019426107 0.021063171 -0.0051334384 0.023348926
0.01425517 0.001623225 0.00913106 -0.025445668 -0.0022349635 -0.009770619 0.01540417 -0.027332457
0.018605258 0.059233405 0.05248127 0.020498108 -0.025501976 -0.0019310643 0.056648094 0.0057408945
-0.00020094324 -0.004062017 -0.0031364607 0.010345683 -0.027004978 0.017620387 0.054427046 0.02589235
-0.0015596724 0.00024872046 -0.0038269213 -0.0121511165 -0.013329632 0.028634764 -0.015553333 -0.0013022022
-0.03177639 -0.03525289 0.0319016 0.0042085527 0.0262925 -0.0024717601 0.010827754 -0.0017888692
-0.0056653796 -0.0067570372 0.007194728 -0.026917126 0.008711172 -0.0020261963 -0.029019406 -0.0014739868
0.030471928 0.045975707 0.032824766 -0.004434377 -0.01317391 0.03237013 -0.029301211 -0.008093055
0.026968641 0.0015078693 -0.11564804 -0.038618732 0.0097750295 0.010466032 -0.015713172 -0.035591803
-0.05151892 0.01917734 0.0016742616 -0.01982299 -0.009592048 -0.0027271863 0.022327 -0.00092111115
-0.0314193 -0.042821165 0.0754445 -0.011330717 0.0066595357 -0.0032859545 0.006870533 -1.02857575e-05
0.03287894 0.019730423 0.053418722 0.016741991 0.060332406 -0.054353457 0.00422177 0.024189454
-0.009293107 -0.02627627 0.012880378 0.033000052 0.021840215 -0.0152055975 0.027912186 0.00845195
00000000: 3f5c 0580 e383 4d3c e665 0580 3b30 3cbd
00000010: 760c 8cbc dad6 6e33 af89 ffba 5f10 6b33
00000020: a463 0580 e440 513d 345a 0580 f797 273c
00000030: a832 f2bb 8152 16a3 ccc6 4b3c 7752 ada4
00000040: e07a 8dbb 8d74 ca3c abb2 87bb 7ddc 233d
00000050: 4dc1 093c 50a0 b33c 9573 433b 9bc2 873c
00000060: 9f23 9ebb ffb2 ebbc ed09 a0bb 7581 ea3c
00000070: 9c99 b2bc 8910 b53c 93e5 87bc 91ee 71bc
00000080: 6293 adbc 0c7e 093c 848c 773c c646 ecbb
00000090: ddea c9bc 379f 0580 5210 69bc 9d74 0500
000000a0: 99cc 303d 223c efbc 9f3e 263d 2dd8 d93c
000000b0: 85c9 07bd 3f85 0580 a5f4 bdbb 2868 0580
000000c0: 8e90 313c bf54 c43b 438e 743c 804a 4b3c
000000d0: c49a 0500 6a3c 03bd e56a 0500 7406 d63b
000000e0: e97c 2e3c 40ce 3c3d d13d 143c 5857 d3bb
000000f0: 215b 0580 f8a9 103c 3f69 0500 513e b63b
00000100: 2388 9eba 2dbe 303b fd85 dcba 804e ec39
00000110: b282 85bb 55c3 d3bc 0f91 29bd ec32 983c
00000120: 247c e5b9 eaba 3f3c 28f8 873c 4ff6 32bb
00000130: 8c46 a6ba 47e4 1fbc 9a60 153d 9cdf df3b
00000140: fc7f f3ba f841 67bc 3d53 393d ea42 ed3b
00000150: 8ad7 7d3d 371a 4ebd 8e7c 0dbc b6c3 533c
00000160: 263a 7fbc 2697 69bd 4deb a6bc 5f38 8f3c
00000170: 2112 41bc cf19 19bc f3bd b83c a25b 28bc
00000180: 0700 febb 8b35 2e3d c342 583c c278 7e3c
00000190: 4039 a4bb 836f 933d 7616 ca3d caaf 0a3d
000001a0: ee30 253d 88ba 32bc 0e2a 87bd 630d 963c
000001b0: 2209 85bc afb5 61bc ed6e ccbc ce3a 10bd
000001c0: 4b61 48bc f5f2 13ba 0341 2cbb 45cc 19b8
000001d0: 2f68 4d3c f1fc 71bb 0bc0 31b9 e5d4 78ba
000001e0: b712 243d 1eb3 b2bb a7e3 613d e807 7cbb
000001f0: 1071 24bc 9b84 d8ba 0566 403c 605f 82b8
00000200: 042d 213c 1cf6 e0bc 3c1b 18bc 06a7 00bc
00000210: 3c80 a43b 499f 35bb 03f9 dabc 9781 d5bc
00000220: ea57 9a3a 8c3f 823d a964 efbc 86bc f2bb
00000230: 2467 5c3c 0137 df3b ee29 243d 0c66 26bc
00000240: b4c2 0fbd 1b01 383c fac5 3b3c 104f 493c
00000250: 67f3 923b 16f6 973d 2c64 7cbc 4f0e f43c
00000260: 39d0 373c 4a49 cc3c b559 b1bc 1078 563c
00000270: 8023 9f3c ac8c ac3c 6736 a8bb 3f46 bf3c
00000280: 848e 693c 65c2 d43a 719a 153c 6f73 d0bc
00000290: 7778 12bb f214 20bc c661 7c3c 51e8 dfbc
000002a0: 0e6a 983c ba9e 723d 9af6 563d a6eb a73c
000002b0: 85e9 d0bc c41b fdba d507 683d 1d1e bc3b
000002c0: 4ab4 52b9 ab1a 85bb 148d 4dbb f180 293c
000002d0: 8b39 ddbc a158 903c e5ee 5e3d 321c d43c
000002e0: ec6d ccba b266 8239 16cd 7abb 7a15 47bc
000002f0: 8764 5abc 7493 ea3c 68d3 7ebc a8ae aaba
00000300: f627 02bd 5665 10bd 41ab 023d e6e7 893b
00000310: 5e63 d73c 41fd 21bb e466 313c 7d78 eaba
00000320: a6a4 b9bb 236a ddbb c1c1 eb3b 4e81 dcbc
00000330: 4eb9 0e3c efc9 04bb 1bba edbc ca32 c1ba
00000340: 44a0 f93c 0651 3c3d 4373 063d 404e 91bb
00000350: 62d7 57bc 8b96 043d 1809 f0bc bc98 04bc
00000360: 57ed dc3c b3a3 c53a e1d8 ecbd ad2e 1ebd
00000370: 7227 203c b879 2b3c e9b8 80bc b6c8 11bd
00000380: 8105 53bd cc19 9d3c e672 db3a d363 a2bc
00000390: f727 1dbc 98ba 32bb 1de7 b63c b976 71ba
000003a0: 86b1 00bd 3f65 2fbd a582 9a3d 79a4 39bc
000003b0: 3c38 da3b 2b59 57bb 3522 e13b fe90 2cb7
000003c0: 11ac 063d b2a1 a13c 97cd 5a3d 8026 893c
000003d0: 1d1f 773d bba1 5ebd c656 8a3b f628 c63c
000003e0: 1e42 18bc 5541 d7bc 3908 533c 102b 073d
000003f0: 40ea b23c e620 79bc 19a8 e43c 0c7a 0a3c

decoder.2.bias f4 [32]
-0.04353574 0.0010961359 -0.02465062 -0.0013885702 0.011959247 0.008107816 0.03768297 0.063703656
0.03459908 0.045417756 0.03558708 0.018222364 0.027602235 -0.008593641 0.014565158 0.029441627
-0.009080116 0.015261524 0.048313715 0.027941989 0.007842013 0.051323034 -0.010529981 0.0034287863
0.02263417 -0.02075637 0.005381632 0.02584036 0.013632119 0.027598232 0.0013931661 0.04617631
00000000: 8852 32bd 38ac 8f3a 19f0 c9bc af00 b6ba
00000010: b8f0 433c a5d6 043c 7559 1a3d 1077 823d
00000020: c4b7 0d3d f807 3a3d c2c3 113d 1147 953c
00000030: 151e e23c 58cc 0cbc b3a2 6e3c 912f f13c
00000040: c4c4 14bc 790b 7a3c 9ae4 453d 99e6 e43c
00000050: c97b 003c 1a38 523d f185 2cbc 7db5 603b
00000060: 4b6b b93c 4309 aabc 6758 b03b 2aaf d33c
00000070: 4059 5f3c b015 e23c e69a b63a 5f23 3d3d

decoder.4.weight f4 [32, 3, 4, 4]
0.04446703 0.008256828 0.09667498 -0.02544975 -0.001323114 -0.032951523 0.13942267 -0.014096852
0.0042123944 -0.035239387 0.14326996 -0.1660524 -0.046222527 -0.043463293 0.08059533 -0.09088743
-0.008658882 -0.04338524 0.111823134 0.06671985 -0.03757905 -0.07699265 0.114715114 -0.062784076
-0.053324655 -0.06965122 0.1454168 -0.22062929 -0.09664029 -0.10879514 0.07596889 -0.16198462
-0.05012929 -0.03943125 0.20587914 0.10057821 -0.022954822 -0.024709461 0.26918197 -0.052900136
-0.025993433 -0.019501744 0.3075214 -0.17513399 -0.05344102 -0.06808318 0.18890011 -0.12000383
0.10264959 -0.027048875 0.035135448 -0.11622117 0.024989199 -0.031093257 0.07534782 -0.1479329
0.037375387 0.11178705 0.04725749 -0.062259614 -0.041854475 0.08798584 -0.033972334 0.094588526
-0.03682063 0.007346193 -0.087125145 -0.04058361 0.055523995 -0.04830736 -0.10377995 0.0034966306
0.03535646 -0.07772826 0.08245747 -0.1260889 -0.03859659 -0.10033537 -0.14105718 -0.0725589
0.036599603 0.0025549876 -0.123955294 -0.12788713 -0.03578243 -0.050291125 -0.12837161 -0.13849942
0.10423241 0.03748211 -0.03713515 0.01444367 -0.00193289 0.02328834 -0.08531535 0.12401645
0.0528504 -0.14848788 -0.107551366 0.02777689 0.10214861 -0.16244087 -0.019808661 0.031036235
-0.06532041 -0.12522234 0.08592501 -0.010811681 -0.011767807 -0.11348184 0.0132474005 0.044060014
0.12871006 -0.11795166 0.028298192 -0.017295085 0.1360617 -0.07014312 -0.020483382 0.04776776
-0.12655221 0.024515202 0.12904993 0.028234996 -0.008366261 0.06952145 0.13150986 0.07849439
0.116325706 -0.0759031 -0.029925916 -0.014151927 0.14716393 0.016129972 0.113940835 0.0032060775
-0.08275326 0.063402474 0.21663669 0.010693547 -0.017997945 0.11857507 0.18701543 0.056900393
-0.08310872 -0.106176056 0.060417965 0.055125263 -0.07065163 -0.10626456 -0.16632484 0.021999728
-0.0010958038 0.040047437 0.07170202 -0.029115487 0.043950915 0.06908446 -0.008295798 0.10574255
0.027940882 -0.025770778 -0.046960365 0.070286095 0.059139512 -0.031375814 -0.054672983 0.092596956
-0.021180958 -0.029209271 0.027780043 0.13220976 -0.002172627 0.100364074 -0.056999497 0.07137394
-0.06804519 -0.00063049176 -0.040465567 0.0488167 0.075188935 0.10243055 -0.06073853 0.120928854
0.038637385 -0.03056367 0.0040046438 -0.025441417 -0.02215688 0.13625424 0.04378734 0.03835622
-0.13808517 -0.09662071 -0.09421724 -0.0855697 0.049734425 0.0004987315 -0.057577852 -0.07993267
-0.10599986 0.088858135 0.026886895 -0.14729239 -0.10332239 0.08723376 -0.013206647 -0.099277414
-0.019752735 -0.05499497 0.094743244 -0.019017141 0.11357074 0.16390479 0.056387715 -0.03619695
-0.084715135 0.13316533 0.062490836 -0.10877547 0.049724717 0.07704038 0.067548774 -0.005064816
-0.0075342706 -0.05185448 0.15493649 -0.0036327066 0.1838944 0.1788847 0.23204358 0.09335989
0.06676052 0.18030366 0.11173677 -0.071250476 0.06518139 0.124850154 0.10235369 -0.02190381
0.040840488 -0.1532295 0.023810433 -0.004588317 -0.05008599 -0.11854897 -0.08082644 -0.12051834
-0.1830453 -0.21028769 -0.09090543 0.04619128 0.09960502 -0.13048626 -0.13409325 -0.0031752258
00000000: 0f23 363d a647 073c 88fd c53d fe7b d0bc
00000010: 576c adba 2df8 06bd d1c4 0e3e 7cf6 66bc
00000020: 2008 8a3b 2d57 10bd 5cb5 123e a409 2abe
00000030: d553 3dbd 9106 32bd 2a0f a53d 3023 babd
00000040: fcdd 0dbc b9b4 31bd 8703 e53d 6ba4 883d
00000050: 7dec 19bd 53ae 9dbd c2ef ea3d f094 80bd
00000060: f46a 5abd 4da5 8ebd 24e8 143e a5ec 61be
00000070: 58eb c5bd fdcf debd 9495 9b3d 4cdf 25be
00000080: 5f54 4dbd aa82 21bd fbd1 523e f3fb cd3d
00000090: c00b bcbc 7f6b cabc 38d2 893e d0ad 58bd
000000a0: 2ef0 d4bc 1fc2 9fbc 7273 9d3e 5356 33be
000000b0: f9e4 5abd 326f 8bbd 086f 413e 91c4 f5bd
000000c0: f339 d23d 9a95 ddbc 30ea 0f3d 5d05 eebd
000000d0: 26b6 cc3c 49b7 febc f54f 9a3d b97b 17be
000000e0: ef16 193d 9cf0 e43d 1291 413d f003 7fbd
000000f0: 996f 2bbd ec31 b43d 9326 0bbd a1b7 c13d
00000100: 3bd1 16bd 55b8 f03b ab6e b2bd 003b 26bd
00000110: 216d 633d f0dd 45bd 958a d4bd ba27 653b
00000120: efd1 103d fe2f 9fbd 76df a83d 731d 01be
00000130: 7517 1ebd a17c cdbd 4b71 10be c399 94bd
00000140: 77e9 153d 9471 273b 46dc fdbd d8f4 02be
00000150: 9990 12bd 11fe 4dbd d973 03be cbd2 0dbe
00000160: cd77 d53d d786 193d 071b 18bd 25a5 6c3c
00000170: 0759 fdba 30c7 be3c d0b9 aebd 56fc fd3d
00000180: a979 583d 350d 18be e443 dcbd 5c8c e33c
00000190: 4a33 d13d e656 26be c645 a2bc b43f fe3c
000001a0: b5c6 85bd 493a 00be 74f9 af3d 7a23 31bc
000001b0: c3cd 40bc 2b69 e8bd a00b 593c 4678 343d
000001c0: 92cc 033e a490 f1bd 9cd1 e73c 6cae 8dbc
000001d0: c253 0b3e 32a7 8fbd c4cc a7bc 20a8 433d
000001e0: e796 01be 1bd4 c83c aa25 043e 144d e73c
000001f0: a412 09bc 4361 8e3d 85aa 063e abc1 a03d
00000200: 2c3c ee3d 1673 9bbd 3227 f5bc 7cdd 67bc
00000210: 24b2 163e 0123 843c d059 e93d 0e1d 523b
00000220: 8b7a a9bd 28d9 813d 02d6 5d3e fd33 2f3c
00000230: 6d70 93bc 7cd7 f23d f980 3f3e 6310 693d
00000240: e834 aabd d572 d9bd d478 773d 07cb 613d
00000250: cdb1 90bd 3ca1 d9bd 0f51 2abe c638 b43c
00000260: 13a1 8fba c808 243d 82d8 923d 9a83 eebc
00000270: e005 343d 277c 8d3d 19eb 07bc 8d8f d83d
00000280: 47e4 e43c 3d1d d3bc 8359 40bd 28f2 8f3d
00000290: 463c 723d ed83 00bd c7f0 5fbd 79a3 bd3d
000002a0: b083 adbc 4848 efbc f992 e33c ff61 073e
000002b0: a262 0ebb ae8b cd3d 4e78 69bd 802c 923d
000002c0: 475b 8bbd 9647 25ba 39bf 25bd 05f4 473d
000002d0: a8fc 993d 1cc7 d13d f7c8 78bd 8ca9 f73d
000002e0: 3c42 1e3d a960 fabc 6339 833b 856a d0bc
000002f0: 5882 b5bc 3b86 0b3e 5b5a 333d 691b 1d3d
00000300: 3366 0dbe 14e1 c5bd f8f4 c0bd 2b3f afbd
00000310: 53b6 4b3d 4ebd 023a c1d6 6bbd bdb3 a3bd
00000320: 7416 d9bd 41fb b53d e841 dc3c d1d3 16be
00000330: b09a d3bd 9da7 b23d b160 58bc f551 cbbd
00000340: 7dd0 a1bc 6842 61bd bf08 c23d d6c9 9bbc
00000350: c797 e83d a8d6 273e cef6 663d 4143 14bd
00000360: 217f adbd 7e5c 083e 64f6 7f3d acc5 debd
00000370: 25ac 4b3d 59c7 9d3d 0357 8a3d c2f6 a5bb
00000380: 0be2 f6bb 5d65 54bd aca7 1e3e b412 6ebb
00000390: d04e 3c3e 8d2d 373e d59c 6d3e 7833 bf3d
000003a0: bdb9 883d 86a1 383e 3fd6 e43d c5eb 91bd
000003b0: d27d 853d 70b1 ff3d d09e d13d 9e6f b3bc
000003c0: 5b48 273d 32e8 1cbe 190e c33c 9859 96bb
000003d0: f826 4dbd cdc9 f2bd 5588 a5bd 52d2 f6bd
000003e0: 3a70 3bbe a855 57be a02c babd 1133 3d3d
000003f0: b7fd cb3d 319e 05be be4f 09be 7317 50bb

decoder.4.bias f4 [3]
-0.09570229 0.09896391 -0.13112113
00000000: 90ff c3bd 97ad ca3d 9e44 06be
