notebooks/conv_autoencoder_cifar10.pt (torch, 810865 bytes, 12 tensors)

encoder.0.weight f4 [32, 3, 3, 3]
000000 32 fc a3 bc 50 2d 4d bd 1a a0 2b be 5a d4 cd bd
       -0.020017717 -0.05009204 -0.16760293 -0.100502685
000010 f3 32 a6 3c a0 74 0f 3d de 53 19 bc 31 79 0d be
       0.020287966 0.03502333 -0.009358374 -0.13815762
000020 3e 0f 0a 3e ea dc 0d 3d 03 6e 03 be b5 07 e1 3d
       0.13482377 0.03463451 -0.12834935 0.10987798
000030 59 ed 20 be b9 86 05 3b 91 ae be bc 70 5d 47 3c
       -0.15715541 0.002037449 -0.0232766 0.012168273
000040 e5 78 67 bd 43 10 02 bd 3f 98 1d bd c9 73 c1 bd
       -0.05651178 -0.03175379 -0.03847527 -0.094459124
000050 51 f3 85 3d df 09 16 3b 3a 25 0c be 97 ac 2c be
       0.065405495 0.0022894067 -0.13686076 -0.16862713
000060 b3 c3 43 be 77 55 1c be c9 17 9d bd 26 f5 ef bc
       -0.19117622 -0.15266977 -0.07670552 -0.0292917
000070 1c b6 e7 3d 7b d5 8d 3d 00 4c ed bd 31 2c cd 3d
       0.113140315 0.06925484 -0.115867615 0.100181945
000080 72 a9 f1 3d 14 27 4c bd 94 29 0a bd 77 71 e7 3d
       0.11799897 -0.049841955 -0.03373106 0.113009386
000090 b6 43 ca 3d 0d 32 32 bd 51 74 95 3d ca fc 03 3e
       0.09876196 -0.043504763 0.07297576 0.128894
0000a0 bd 1d 98 bd 7d a6 d9 3d fd 9f 6e bd 9d 1b 4f 3e
       -0.07427547 0.10627458 -0.058258045 0.20225377
0000b0 cf cf 01 be 59 d4 1f 3d 83 99 89 bc ff 25 9f bb
       -0.12676929 0.03902087 -0.016796833 -0.0048568244
0000c0 75 78 12 3e 23 63 95 bd 7d 1d 92 bd ff 07 53 3e
       0.14303763 -0.072942995 -0.07134531 0.20608519
0000d0 91 ff 3e 3e 2f a8 58 3c 90 81 4b 3c 35 30 01 3d
       0.18652178 0.013223692 0.012421027 0.031540114
0000e0 10 a9 e6 bd 83 35 3c 3e 26 22 29 be f3 bb 21 3e
       -0.11262715 0.18379788 -0.16516933 0.15794353
0000f0 04 7a 90 bd 3d 2f f1 3d 36 5f 10 bd e3 dd 0f be
       -0.07054523 0.11776588 -0.03524705 -0.14049487
000100 5d aa 06 3e 80 79 3a 3e 98 25 4b 3e 2a d2 05 be
       0.13150926 0.18210411 0.1983856 -0.13068452
000110 60 c5 43 bd c9 42 fa 3d b5 98 99 3c e9 e6 32 bc
       -0.047795653 0.122197695 0.018749574 -0.010919311
000120 57 b7 34 3e 79 58 e1 bd fc cf 30 3e 4e 7e 03 be
       0.17648064 -0.11003203 0.1726684 -0.1284115
000130 55 86 10 be b5 81 2f be d4 7f 4c bc a7 95 0a be
       -0.14113744 -0.17139323 -0.0124816485 -0.1353365
000140 19 f7 26 bd 17 48 43 bc c3 2b c8 bd 8f d2 4b bd
       -0.040762994 -0.011919043 -0.09773972 -0.04976135
000150 f3 fb bc 3d f4 32 58 bd 6a 49 2a be e8 02 e1 bc
       0.09227743 -0.052782968 -0.16629568 -0.027467206
000160 d6 95 76 be d3 f6 8f be 3a 36 56 bd a3 e5 da 3d
       -0.24080595 -0.28118 -0.05229781 0.10688331
000170 e4 47 f1 3d 73 8e 0a 3e 76 52 b7 bd 1a 0e 96 3d
       0.1178129 0.13530903 -0.08951275 0.073269084
000180 22 a1 f4 3c 16 42 8a 3c 06 97 4a be 4a 03 bf 3c
       0.02986199 0.016877215 -0.19784173 0.023316998
000190 b6 7b 1f be 3e 96 cb 3c 38 3e 7f 3d c7 5f 15 3e
       -0.15574536 0.024851914 0.062315196 0.14587317
0001a0 ae 49 a8 3b c4 ba f5 3d eb 58 a5 bd 15 bb 51 be
       0.0051357364 0.11998513 -0.080736004 -0.20481522
0001b0 71 99 af bd 1c 69 52 39 53 77 30 be 2a 19 0e 3e
       -0.085741885 0.00020066317 -0.17233019 0.13876787
0001c0 35 1c 8a 3c 7d 42 5b bd 03 77 28 bd 65 73 17 3e
       0.016859153 -0.053530205 -0.041129123 0.14790113
0001d0 19 83 e7 3d 9b 6f d8 3c 83 4b ea 3d ac f7 93 bd
       0.11304302 0.026420405 0.11440184 -0.07224974
0001e0 28 7f 2c 3d 43 f1 35 be c4 b6 47 be 3c 17 1f 3e
       0.042113453 -0.17767815 -0.19503313 0.15536207
0001f0 ae 95 96 bd 02 9b 19 3e ee ff 33 bd ab 23 b8 3d
       -0.07352768 0.15000537 -0.043945245 0.08991178
000200 dd 20 ce 3d c1 b8 94 bd 21 51 62 be 1c 72 a4 3d
       0.10064862 -0.072618015 -0.2210126 0.08029577
000210 9d 05 ee 3d ce ac 35 be 8c 2c bb 3c cd 11 b2 bd
       0.116221644 -0.17741701 0.02284839 -0.086948015
000220 fc 85 30 bd a8 e2 0e bd b5 2e 0d bd 54 87 85 3e
       -0.043096527 -0.034884125 -0.03446837 0.2607981
000230 69 0f 54 3d b8 15 36 be 7b d8 d4 3d 9f 3a 1c bb
       0.05177251 -0.17781723 0.10392853 -0.0023838652
000240 1d c6 7e 3d 99 86 3f 3c be 27 a0 3c ef 5f 6e bd
       0.062200654 0.011689805 0.0195502 -0.05819696
000250 c3 91 a2 3e b5 cc 16 3e 48 b8 a8 3d 73 6c 94 3e
       0.31751832 0.14726527 0.08238274 0.2898899
000260 35 e1 36 3e 06 8b 45 bd d7 80 12 3c de ed f0 bd
       0.17859347 -0.048228286 0.008941851 -0.117641196
000270 7f 64 30 be 99 e8 5b bc 40 90 82 3d 0e 08 08 be
       -0.17225836 -0.013422155 0.0637517 -0.13284323
000280 39 34 89 bd 46 e0 bf bd 3a 8a 20 3e c2 96 ac 3d
       -0.06699414 -0.09368949 0.15677729 0.08427192
000290 97 05 6c 3c 85 f3 a7 bd 33 88 0a 3d a7 64 68 be
       0.01440563 -0.082007445 0.033821296 -0.22694646
0002a0 0a 27 c4 bc ae 43 f4 bc 90 e7 9a bc f3 af b5 bd
       -0.023944397 -0.029817428 -0.018909246 -0.0887145
0002b0 a9 df 02 3c 51 90 62 bd 02 82 a0 3c f0 74 de bd
       0.007987895 -0.055313412 0.019593243 -0.10862148
0002c0 cf 07 1a be 2a 3f 59 3d 77 96 c7 bc 08 28 4b be
       -0.15042041 0.053038754 -0.02436374 -0.1983949
0002d0 f1 7f b7 bd 19 48 a6 3d c8 ec 69 3d 2f 30 07 be
       -0.0895995 0.0811922 0.057110578 -0.13201974
0002e0 b8 60 e3 3d fa 01 93 bb 6d fe c5 3d f4 45 90 3e
       0.11102432 -0.0044863196 0.096676685 0.2817837
0002f0 28 14 5c 3e 54 b5 9d bd d4 cd 03 3e bf 55 eb 3c
       0.21492064 -0.07700601 0.12871486 0.02872741
000300 90 06 ff 3d f2 57 84 3e 3b 4b 99 be 77 67 07 3c
       0.124524236 0.25848347 -0.2994021 0.008264414
000310 6e 30 0d 3e ea c0 1d bc 55 e4 03 3d 79 1c ce 3d
       0.13788006 -0.009628514 0.032200176 0.100640245
000320 f4 85 f9 bd c4 0d ba 3c e3 11 21 3e 37 09 89 be
       -0.12183753 0.022711642 0.1572948 -0.26764843
000330 2f 41 04 3e 8a ad 43 3d 95 0b c4 bd d8 86 b8 bd
       0.1291549 0.04777292 -0.095725216 -0.090100944
000340 32 9b d6 3d 4c c3 b9 bd 8c 11 b1 3d 94 c8 8c bd
       0.1047882 -0.09070453 0.08645925 -0.06874195
000350 80 5e c6 be 7a 63 b0 bb 5c d1 ec 3b 22 51 c0 bd
       -0.38743973 -0.0053829523 0.007227106 -0.09390475
000360 d1 26 ad 3d b6 e7 dd 3d 1e b8 fb 3d f3 cb 55 3d
       0.08454669 0.10835211 0.12290977 0.052196454
000370 14 d3 41 3d 11 f6 4a 3e 43 ab bd 3c 39 5e c6 3d
       0.04732044 0.1982043 0.023152953 0.0968594
000380 af e2 c9 bd b7 e0 81 bd 33 4b 35 be bd 0c 0a 3e
       -0.098576896 -0.06341689 -0.17704467 0.13481422
000390 14 8c 02 be 19 84 49 be e9 2d 9c bd b3 95 5c bd
       -0.12748748 -0.19679298 -0.07625944 -0.0538537
0003a0 b2 91 27 3d 6a 3a 49 be 5b 86 11 bd d7 78 0d be
       0.04091043 -0.1965119 -0.035528522 -0.13815628
0003b0 54 ef 11 bc bd 4b 42 3d 41 27 2e 3d 97 7c c6 bc
       -0.008907158 0.04743551 0.042517904 -0.024229331
0003c0 b1 ca a3 3d 03 57 21 3e 35 d4 c1 bd de 47 7f bd
       0.07997645 0.15755849 -0.094643034 -0.062324397
0003d0 49 ba 1a bd 84 e3 8c bd a9 76 00 3c 99 9d 2c be
       -0.03777531 -0.06879333 0.007840791 -0.16856994
0003e0 63 6f 0f 3e 74 34 15 be 90 55 93 be b4 2e 69 bc
       0.14007334 -0.1457079 -0.28776217 -0.014232326
0003f0 c5 6e 88 3d 31 18 10 3e b3 c8 32 3d 80 b7 84 3d
       0.066617526 0.14071728 0.043648433 0.06480312

encoder.0.bias f4 [32]
000000 14 4c 1e be 3d a1 7c 3d 05 db 93 3e 07 df f8 bd
       -0.15458709 0.061677206 0.28878036 -0.12151914
000010 d7 d6 12 3e 12 e9 10 bc 1d 56 76 3e 1d 65 6a 3e
       0.14339767 -0.008844631 0.24056287 0.22890134
000020 8a 82 1b 3e 68 0d 95 be 41 4c 8d be a1 b5 bb 3d
       0.15186515 -0.2911179 -0.2759724 0.09165502
000030 d0 49 3a bd 84 b0 03 3e f0 e4 e1 bc f6 64 1c 3b
       -0.04548055 0.12860304 -0.027574986 0.0023863888
000040 35 5d 3d 3e cd 05 01 3e 54 6e 68 3d 16 32 10 be
       0.18492587 0.12599869 0.056745842 -0.14081606
000050 ba bc 51 be 50 a4 cf bd 7c f5 40 bc 2e 15 47 3e
       -0.2048215 -0.10138762 -0.011777278 0.19441673
000060 67 bc c9 be 12 4b 8f 3e a0 f3 d9 bd 79 d4 85 3e
       -0.39401552 0.27986962 -0.10642171 0.26138666
000070 a6 c9 5d be 51 25 74 bd 5c cc 0c 3e 13 62 92 3e
       -0.21658954 -0.0596059 0.13749832 0.2859045

encoder.2.weight f4 [64, 32, 3, 3]
000000 62 f5 97 bc ab 50 91 ba 64 05 17 bd ac 94 a4 3c
       -0.018549625 -0.0011086663 -0.036870375 0.020090424
000010 87 2a f4 bb fd 06 46 3b f5 ce de bb 18 8a 6b 3d
       -0.0074513587 0.0030216568 -0.0067995735 0.057504743
000020 ea f7 3e bd 2f 53 99 3c 07 fa 2d 3d cd 2c c6 3a
       -0.046623148 0.018716423 0.042474773 0.0015119553
000030 61 53 83 bc c3 73 16 bd fa 25 1e 3c 68 a5 4a 3c
       -0.01603097 -0.036731493 0.009652609 0.0123685375
000040 8d 58 5e bc 55 60 81 bc b0 d5 4f bb cf f9 83 bd
       -0.013570917 -0.015793005 -0.003171306 -0.064441316
000050 ba ec 29 bd 16 8b 99 3c 58 d2 0a bd 9c 98 e2 3c
       -0.041485526 0.01874308 -0.033892006 0.02766066
000060 ca a1 23 bd bf 2e 09 3e 79 be 72 3d e3 87 29 3c
       -0.039949216 0.13396738 0.05926368 0.010347339
000070 e6 17 59 ba 8a e2 33 3d 6e 37 a7 3d 6b df 66 bd
       -0.0008281454 0.043917216 0.08164869 -0.05636541
000080 2d 7a 03 bd da 1d 32 3c 5b 2e 87 3d 4f c8 3f ba
       -0.032098938 0.010871375 0.066006385 -0.000731592
000090 e3 fb 78 bc 1f 4a 7b bc c3 6e 35 bd 93 c5 0d 3c
       -0.015196773 -0.015337496 -0.044295084 0.008653062
0000a0 c3 42 0a 3d 74 d8 db 3d 03 fa bc bc 58 fe 75 3d
       0.033755075 0.107346445 -0.023068434 0.060057014
0000b0 59 57 40 3d 61 b0 ca 3c 16 af 5b 3c 5e e7 c2 3c
       0.0469583 0.024742307 0.013408443 0.023791965
0000c0 ed 8c 1c 3a dc 19 93 3b e0 26 24 3c 32 5a 60 3c
       0.00059719273 0.0044891667 0.010019034 0.013693379
0000d0 2c 22 c1 bc 92 b6 17 3d 3b 67 20 3d 83 57 92 3c
       -0.023575865 0.037039347 0.03916095 0.017863994
0000e0 01 2d 03 3d c3 f8 8a 3d 08 8d 85 3d c1 b1 5c 3d
       0.03202534 0.06785729 0.0652104 0.053880457
0000f0 b5 00 09 bd f5 15 b8 bd b1 45 72 3c 1d 2b 12 3c
       -0.03344794 -0.08988563 0.014787124 0.008921412
000100 c9 c3 b0 3c c2 71 7d bc 12 a6 b8 bb b5 0f d1 bc
       0.021577733 -0.0154690165 -0.0056350315 -0.025520185
000110 54 c3 75 3d f5 e6 41 bd 22 7a b6 3b ae 7a 22 3e
       0.060000733 -0.0473394 0.0055687586 0.15867111
000120 2c f1 85 bb 55 eb fc 3c 92 a3 04 3d 55 da 5d 3c
       -0.004087588 0.030873934 0.032382555 0.013540824
000130 11 fb d1 bd be a8 96 3d 17 c4 7c 3b 9c 31 8d 3d
       -0.10252965 0.07356404 0.0038569027 0.06894228
000140 9b 14 c0 3d 3e 57 37 3d 4f 9f 80 bc bc 81 35 3d
       0.0937893 0.044760935 -0.015700964 0.044313177
000150 a7 82 4b 3b 06 ba 81 3d 8d fd c3 bd a6 c6 0f bc
       0.0031053217 0.06334309 -0.09569845 -0.008775389
000160 2a 29 cb 3d 7f f7 09 3d 1f 4e 88 bc d4 b0 10 bc
       0.09919961 0.033683296 -0.016638814 -0.008831222
000170 5a 07 78 3c 79 70 13 bc 4b 39 2d 3d 75 63 08 bd
       0.0151384715 -0.008998984 0.042290967 -0.033297975
000180 4d 62 9a 3c a8 24 51 3c eb 5d 09 3d 20 9e 82 bb
       0.018845702 0.012765087 0.033536833 -0.003986135
000190 4f b7 40 bc df 2f 9c 3c cd b1 d0 3c ca 61 5b 3d
       -0.011762454 0.019065795 0.025475407 0.053560056
0001a0 ce f6 a6 ba 60 d5 f4 3b 04 18 d9 3d 89 8e 9f 3d
       -0.0012738348 0.0074717253 0.10600284 0.07790858
0001b0 42 c7 47 3b 6e d5 c4 bc 2c 7c cc 3b d4 fa c1 3c
       0.0030483757 -0.024027552 0.0062403884 0.023679174
0001c0 f3 36 69 3d 8e 2f 33 3d 09 61 18 bc da 25 2e 3e
       0.05693717 0.043746524 -0.009300479 0.17006627
0001d0 4a 9a 73 3c 66 c9 22 3c 7e 4f 43 3c fd ce f6 bc
       0.014868328 0.009935712 0.011920808 -0.030127997
0001e0 ab 63 28 bd 9c 03 98 3d 72 7d a1 3d d5 cb 9d 3a
       -0.041110676 0.074225634 0.07885255 0.0012038896
0001f0 8d 6c 4d bd 30 5a b9 3d f6 0e 83 bc de 43 cf 3c
       -0.05015235 0.09050405 -0.015998345 0.025300916
000200 8a 10 09 bd 84 44 8f ba 7d 92 18 3d 60 3e 22 3d
       -0.03346304 -0.0010930453 0.037249077 0.039610267
000210 b6 63 49 bc a3 3e 46 bc 43 53 da bc b5 a6 30 bb
       -0.012291839 -0.012099895 -0.02665103 -0.0026954834
000220 8c a4 f3 bc cf 8a b2 bc cd 87 06 bd b9 19 42 bd
       -0.029741548 -0.021794705 -0.032844353 -0.047387812
000230 67 71 18 3c b7 af 21 3d e6 ca 26 3e de 5e 4c 3e
       0.009304381 0.039474215 0.16288337 0.19958064
000240 3e 83 74 bd 7f bc 69 3d 6a df ba bc 27 61 d8 bc
       -0.059695475 0.05706453 -0.02281161 -0.026413513
000250 44 af 96 bc 03 db ec 3d 2f bd 08 3d 3f 6d a2 bc
       -0.01839412 0.11565211 0.033383545 -0.019827483
000260 cd 05 95 3c ea 22 8d 3c e6 e3 da b9 9a 9e 3b bc
       0.018191243 0.017228562 -0.00041749998 -0.011451388
000270 69 be 2d bc 1d e4 25 bd 88 55 85 bc 42 73 17 bd
       -0.010604479 -0.04050075 -0.016276136 -0.036975153
000280 ac b1 82 3c 1b 0c ef bb 69 24 3b bb 59 00 02 3d
       0.015953861 -0.0072951443 -0.0028555638 0.031738613
000290 18 c5 6b bc a6 a8 d1 3c 60 aa dc 3c d6 a5 f2 3d
       -0.0143902525 0.025593113 0.02693671 0.11848037
0002a0 07 fb a2 bb 75 8b 5a bd 6d 53 96 3c 99 e2 1c 3d
       -0.0049737724 -0.053355653 0.018350327 0.038302038
0002b0 c9 7a 8d bc 36 ab aa 3d d8 7a 66 3d 51 8c f4 3d
       -0.017270463 0.08333437 0.056269497 0.11940826
0002c0 d1 3f 8e bd ae 56 8c 3d e7 59 16 3d 04 cd 1f 3e
       -0.06945766 0.0685247 0.03670683 0.15605551
0002d0 39 61 c0 3c 2e 7a 13 3d b4 f4 87 3b dd 84 62 bc
       0.02348386 0.03600519 0.004149044 -0.013825622
0002e0 da 63 c8 bd 38 0d a5 3d 1f 99 e7 bc 2a bb 7d bc
       -0.0978467 0.08059162 -0.028271256 -0.015486518
0002f0 fd c0 c8 3a b3 d7 f3 bc a9 dd 8f bc c1 67 a6 bc
       0.0015316304 -0.02976594 -0.01756175 -0.020313146
000300 1d 31 2d bd ca 50 c2 3b 1b 51 02 bc 1e 8a 82 3c
       -0.042283166 0.005930041 -0.007953907 0.015935
000310 ad 13 a7 3d d5 ad 95 3d 2b 50 3f bb f3 f8 59 3d
       0.0815805 0.073085465 -0.002919207 0.053215932
000320 a4 f8 40 3b fa c9 53 3c 63 c2 9a 3d ee 24 b9 3c
       0.0029445076 0.012926573 0.075566076 0.022600617
000330 55 52 9f bc e9 6d c8 bd 78 53 0c be 52 01 10 bc
       -0.019448439 -0.09786589 -0.13703716 -0.008789377
000340 4c 35 d0 ba ad 3f 00 bd a3 45 17 3d eb ba 09 be
       -0.0015885024 -0.031310726 0.036931645 -0.1345021
000350 67 b6 0c 3d 68 ee 19 bc a6 a9 3f b9 c1 36 af bb
       0.03435364 -0.009395219 -0.00018278378 -0.0053471033
000360 05 ba b9 bc e2 99 17 3d 34 ce 63 bd 88 36 19 bd
       -0.022671709 0.03701199 -0.055616572 -0.03740552
000370 f4 f7 9d 3d 89 4c bd 3d d2 10 ed ba 0a 9a 03 be
       0.07713309 0.092431135 -0.0018086678 -0.1285173
000380 26 e2 93 bd 3a 3f 77 bd 61 8a 8f 3d 7a 71 f3 bc
       -0.07220869 -0.060363032 0.070088156 -0.029717196
000390 2a 50 bb 3b 1b eb ad bd e7 37 ee 3d 4e 57 b0 bc
       0.0057163434 -0.084921084 0.11631756 -0.021526005
0003a0 a8 32 d0 bd ca 6d b3 bd 44 53 5c 3a 39 1e ad 3a
       -0.10165912 -0.08761175 0.00084047415 0.001320786
0003b0 52 99 1b bc a8 09 10 3c 42 e6 3d 3d 9a 32 3a 3d
       -0.009497004 0.008791365 0.04636217 0.045458414
0003c0 21 48 3c 3c 38 37 a6 bc 75 35 68 3d c5 4e 15 3c
       0.011491806 -0.020290002 0.056691606 0.009113018
0003d0 b6 ec 5d 3c fb 19 8f 3d d9 0a 10 bc f4 e1 28 bc
       0.013545206 0.06987377 -0.008791649 -0.010307778
0003e0 fd bd 59 3b 72 fb 1a 3d ba 77 27 3e d0 6c fd 3b
       0.0033224814 0.037837453 0.16354266 0.0077339187
0003f0 84 73 4b ba d2 bd 91 bc cc 02 48 3d 7f 07 55 3d
       -0.00077610486 -0.017790709 0.048830792 0.052009102

encoder.2.bias f4 [64]
000000 bc c3 01 3d 0f 61 95 bd 76 82 5f bc 59 38 4b be
       0.031680807 -0.07293903 -0.013641944 -0.19845714
000010 96 a6 2c 3d a5 85 5c bd 4a 63 79 3d cd 78 06 bb
       0.042151056 -0.05383839 0.060885705 -0.002051878
000020 b8 22 50 3c 44 dc e1 bc 83 4c 87 3d 2d 0b fb bb
       0.01270359 -0.027570851 0.0660639 -0.0076612444
000030 d9 14 32 3c cb 40 66 3b 45 70 ca 3c 85 b3 85 bc
       0.010869228 0.0035133834 0.024711737 -0.016320953
000040 b9 0c 4a be 0a 30 2e bd 22 ad 16 3d 65 c8 9c bc
       -0.19731416 -0.042526282 0.036786206 -0.019138524
000050 ef d1 6a 3c bf 71 0e 3d 7a 1d 06 3c 49 87 69 bc
       0.014332279 0.034776445 0.008185739 -0.014253446
000060 03 4e 1f be 06 50 f2 bc 8d 94 e5 3c d9 b8 b8 bc
       -0.15557103 -0.029579174 0.028024936 -0.02254908
000070 72 59 d4 3c 2c 68 87 b3 61 26 31 3c 1d ff 73 bd
       0.025921557 -6.305376e-08 0.010812373 -0.059569467
000080 6e 8a 7b bc c8 e6 0a bd 21 7a 79 3d 2f db 80 3d
       -0.015352828 -0.033911496 0.060907487 0.06291806
000090 75 0a 4d bd 56 77 20 3d 8a c3 b6 ba c9 19 e1 bb
       -0.0500588 0.039176308 -0.0013943773 -0.006869529
0000a0 e6 ae ce 3d 18 37 37 bd f3 e0 7f 3d 13 18 69 bd
       0.10091953 -0.044730276 0.062470388 -0.056907725
0000b0 c8 7e fd bd 9b 22 53 3d 25 d5 ad bc 44 c4 e9 bc
       -0.12377697 0.051546674 -0.0212198 -0.02853597
0000c0 79 f0 f7 bd 40 60 e0 3c 5a d5 8c 3b 90 f1 20 3d
       -0.121064134 0.027389646 0.0042978944 0.039292872
0000d0 d1 74 d1 bc 35 50 b0 bc 95 0c 16 be 50 a5 9d bd
       -0.025568398 -0.02152262 -0.14653237 -0.076975465
0000e0 27 06 e4 bb 3f 4f 4e bd 5c 86 6f bc 95 6d 4d 3d
       -0.006958741 -0.050368544 -0.014619436 0.050153334
0000f0 b0 0b 13 bc ff 56 23 3b ca cf 92 3d 1c e4 cc bd
       -0.0089749545 0.002492368 0.07168539 -0.10004446

encoder.4.weight f4 [128, 64, 3, 3]
000000 d4 b6 21 81 ca 8d 4a 81 ce ec 7f 01 3c 92 24 01
       -2.9702203e-38 -3.720327e-38 4.7006002e-38 3.022696e-38
000010 f8 42 61 00 1e cc 58 80 94 f0 3b 00 ef 9d 1f 80
       8.932067e-39 -8.154747e-39 5.504597e-39 -2.903556e-39
000020 49 5c c5 00 9e f2 65 01 10 aa 3b 01 6a 78 a8 00
       1.8124698e-38 4.2234727e-38 3.446849e-38 1.547156e-38
000030 48 a6 6d 80 cd 33 09 01 7f 72 bf 01 6d 1a a8 01
       -1.006972e-38 2.520009e-38 7.0326613e-38 6.175137e-38
000040 e4 19 ab 81 cb ba a5 01 f3 f7 a1 81 c3 79 d2 00
       -6.285263e-38 6.087946e-38 -5.949785e-38 1.9329134e-38
000050 d5 72 23 00 2e 0b a9 81 14 63 7e 81 55 3e aa 01
       3.255436e-39 -6.209684e-38 -4.6723517e-38 6.253758e-38
000060 65 61 90 81 18 39 0b 01 74 1f 12 01 c2 4a a1 81
       -5.3037e-38 2.557123e-38 2.683853e-38 -5.924933e-38
000070 7c a0 5b 81 d8 12 6b 81 12 9d 01 01 a2 3f 37 81
       -4.033909e-38 -4.3176203e-38 2.380625e-38 -3.3657446e-38
000080 33 f2 09 81 94 d5 dc 00 02 1d 25 81 50 91 f3 80
       -2.5336695e-38 2.0280427e-38 -3.0326526e-38 -2.2368154e-38
000090 b6 a8 3c 01 7a 64 a6 81 be 65 8f 81 04 00 ef 00
       3.465119e-38 -6.1122946e-38 -5.2675897e-38 2.1948689e-38
0000a0 9d 3f c6 00 55 c1 60 00 7c 1b a0 81 22 e7 32 00
       1.8206248e-38 8.885562e-39 -5.8814156e-38 4.67469e-39
0000b0 20 f9 39 81 54 5a f2 80 9e 09 f1 80 a9 14 88 81
       -3.4157872e-38 -2.2256594e-38 -2.2135805e-38 -4.9988156e-38
0000c0 9b ec ff 00 eb fc b7 01 d8 c2 cf 00 aa 44 ad 00
       2.350293e-38 6.75865e-38 1.9079844e-38 1.5912173e-38
0000d0 7e 15 2a 01 d4 be a6 80 37 38 8d 01 42 0e aa 80
       3.1239489e-38 -1.5313149e-38 5.1875884e-38 -1.5617149e-38
0000e0 eb 44 16 00 b0 12 6c 01 d5 cf 1a 80 7c 6a 0e 81
       2.045104e-39 4.3359762e-38 -2.462279e-39 -2.615768e-38
0000f0 4d b4 40 01 b8 1c bb 81 f2 ec 32 01 7a ad 68 01
       3.539419e-38 -6.873416e-38 3.2863437e-38 4.2736134e-38
000100 a6 3c a0 81 3b a4 b6 00 38 49 ad 80 fb 12 b7 01
       -5.8861744e-38 1.6772975e-38 -1.5913807e-38 6.725082e-38
000110 08 01 39 81 6b 86 44 00 bc 9e 82 01 b3 b0 8e 01
       -3.3979873e-38 6.293034e-39 4.798223e-38 5.241611e-38
000120 d0 dc 19 81 36 1a 08 01 14 8f 47 81 5f 93 93 01
       -2.8260087e-38 2.499806e-38 -3.665318e-38 5.421074e-38
000130 42 e0 dc 00 65 ee 1c 80 00 74 7d 00 eb 0b 07 81
       2.0284258e-38 -2.656914e-39 1.152105e-38 -2.4804135e-38
000140 8f 5a 65 81 82 9a 1a 01 c6 66 43 81 46 bc 9d 01
       -4.212563e-38 2.8396187e-38 -3.588958e-38 5.794285e-38
000150 6f ed ab 80 e3 77 89 81 f4 e1 90 01 58 a3 8b 01
       -1.5789045e-38 -5.049788e-38 5.322147e-38 5.129492e-38
000160 9e 30 50 81 7a a6 a6 01 64 02 54 81 84 05 a7 00
       -3.8238448e-38 6.121765e-38 -3.8939966e-38 1.5338506e-38
000170 87 48 d3 80 f2 dc 4a 81 bb 41 bc 80 13 9b 88 01
       -1.9403308e-38 -3.726006e-38 -1.7288653e-38 5.018103e-38
000180 1d da 42 00 78 8c aa 01 c0 df 61 00 d9 4d 96 00
       6.139387e-39 6.26497e-38 8.98831e-39 1.3803251e-38
000190 82 d2 30 81 a8 89 41 00 96 9f 4a 81 c0 32 20 80
       -3.2477127e-38 6.018689e-39 -3.7216038e-38 -2.956942e-39
0001a0 ca ac a4 00 b2 c3 23 81 f6 62 3f 01 61 8c 9f 80
       1.5123006e-38 -3.0078776e-38 3.515216e-38 -1.4652202e-38
0001b0 ff 0b 52 01 fa af a9 81 76 8f 71 81 00 c4 80 80
       3.8579515e-38 -6.233331e-38 -4.4367637e-38 -1.1825255e-38
0001c0 d0 14 a5 81 1c fa 41 00 54 96 81 81 c4 8e a3 80
       -6.064129e-38 6.05903e-39 -4.7602826e-38 -1.50204e-38
0001d0 44 b0 4d 81 f1 80 61 80 36 c7 b9 01 65 fa 17 00
       -3.7779018e-38 -8.954299e-39 6.824412e-38 2.202041e-39
0001e0 aa 71 6b 80 fb 97 fb 00 f4 f9 51 80 bc 9d 4a 00
       -9.867173e-39 2.310523e-38 -7.528341e-39 6.852411e-39
0001f0 1d f5 77 00 8b 44 0f 00 86 76 0c 00 5e ed 52 81
       1.1016354e-38 1.402121e-39 1.144544e-39 -3.874121e-38
000200 19 ac e5 80 ed 1c ba 80 4e 72 eb 00 bf 18 6d 00
       -2.1092066e-38 -1.7091779e-38 2.1622346e-38 1.0018946e-38
000210 bf 2f 1d 01 b7 3c 99 81 e2 c0 20 01 65 e9 d9 80
       2.8870602e-38 -5.6290445e-38 2.9525745e-38 -2.0012029e-38
000220 d4 04 ac 80 21 c7 ee 00 4a c9 b2 80 64 a4 49 00
       -1.5797437e-38 2.1928282e-38 -1.6418927e-38 6.762963e-39
000230 0e cf 92 00 b1 46 fe 00 5b fe 52 81 51 96 15 01
       1.348226e-38 2.3351575e-38 -3.87534e-38 2.7474825e-38
000240 82 61 7f 81 cd 67 21 81 2e 4a b8 01 b6 d3 c4 00
       -4.6906061e-38 -2.9645503e-38 6.769737e-38 1.8075705e-38
000250 81 3d 38 01 00 06 af 81 7d c2 40 80 b5 fb 72 81
       3.383959e-38 -6.4293457e-38 -5.947241e-39 -4.462897e-38
000260 52 03 a5 80 c3 3a dc 00 09 35 9c 81 32 64 df 80
       -1.5154048e-38 2.0224889e-38 -5.738145e-38 -2.0515259e-38
000270 3e 24 b2 81 1b 42 8e 80 50 1c 05 01 82 ab 45 01
       -6.543888e-38 -1.3064355e-38 2.4448555e-38 3.6306236e-38
000280 ea 71 96 01 16 d7 df 80 30 24 6c 81 d1 72 f6 00
       5.5264756e-38 -2.0556474e-38 -4.3372317e-38 2.263272e-38
000290 a0 e8 87 01 79 02 06 00 bc 0a 43 01 8a a1 47 01
       4.992497e-38 5.519e-40 3.5823545e-38 3.6666426e-38
0002a0 83 e6 4a 81 aa fa 72 01 3c 66 84 01 2c 46 13 81
       -3.7266924e-38 4.4628223e-38 4.863584e-38 -2.7049982e-38
0002b0 e2 b6 b0 81 24 57 71 01 82 33 d2 00 fc f8 9b 00
       -6.4914613e-38 4.432723e-38 1.9303932e-38 1.432382e-38
0002c0 d8 8c 24 01 ef 3d 98 01 fa 53 9d 81 47 20 4b 80
       3.0223093e-38 5.592485e-38 -5.779319e-38 -6.899241e-39
0002d0 fe 2c a8 01 84 59 ad 81 62 8a 94 01 d6 c6 46 81
       6.1778014e-38 -6.367861e-38 5.4565183e-38 -3.6509514e-38
0002e0 9a 4d 9b 81 dc b1 e6 80 16 c9 a9 81 c7 f0 56 01
       -5.704936e-38 -2.1185968e-38 -6.236934e-38 3.9478342e-38
0002f0 4a e7 83 81 67 91 63 80 87 60 83 81 9c 09 36 00
       -4.8453684e-38 -9.143875e-39 -4.826031e-38 4.962564e-39
000300 a1 02 54 80 ca db b2 01 6b 3e b9 00 1a f8 86 80
       -7.715125e-39 6.5702255e-38 1.7011958e-38 -1.2394959e-38
000310 d9 12 ca 00 e8 55 3f 81 03 8b a2 81 00 b7 41 80
       1.8557531e-38 -3.5142794e-38 -5.9708874e-38 -6.034955e-39
000320 de c9 af 01 51 df fa 00 b8 4b d4 80 f0 bb 16 01
       6.457451e-38 2.3038985e-38 -1.9496288e-38 2.7685487e-38
000330 e6 ef 2f 00 58 7d 6c 01 68 a4 27 00 70 e3 4b 01
       4.402328e-39 4.3436284e-38 3.640562e-39 3.744839e-38
000340 e7 28 d9 00 8e 36 2f 81 18 89 ae 01 89 29 91 01
       1.9942976e-38 -3.2181565e-38 6.4114225e-38 5.332419e-38
000350 1f 58 08 81 aa da 4b 81 c4 18 93 01 a0 54 95 81
       -2.504248e-38 -3.7442095e-38 5.403481e-38 -5.4855387e-38
000360 3f 19 73 81 2c 5a 92 00 f0 60 7d 00 b0 a6 e1 00
       -4.4650164e-38 1.344033e-38 1.1514212e-38 2.0722783e-38
000370 bc 5c 5c 00 6c 9b 35 00 68 71 af 00 25 aa 9a 81
       8.482132e-39 4.923036e-39 1.6111894e-38 -5.681481e-38
000380 c0 c9 b2 81 a3 cf 97 81 26 20 6a 81 e5 a3 9c 01
       -6.567637e-38 -5.5766584e-38 -4.3002078e-38 5.7540527e-38
000390 7d a2 5b 80 fd 80 04 00 e2 39 44 80 16 60 eb 80
       -8.41532e-39 4.13614e-40 -6.265578e-39 -2.1615811e-38
0003a0 be 93 3b 01 62 41 08 80 aa a2 24 00 fa d8 99 81
       3.4452475e-38 -7.58139e-40 3.364431e-39 -5.651467e-38
0003b0 0a fe 38 00 33 f4 9c 81 3c 6a 05 01 64 1e 3b 01
       5.23392e-39 -5.765576e-38 2.4504461e-38 3.436828e-38
0003c0 44 e9 5e 80 ae 64 96 81 a8 d2 73 00 96 b7 2f 81
       -8.716217e-39 -5.5245766e-38 1.0636651e-38 -3.227414e-38
0003d0 34 3f b6 80 d3 d0 60 81 f5 23 18 80 ad 6b 39 80
       -1.6736733e-38 -4.1292126e-38 -2.216951e-39 -5.27325e-39
0003e0 4b 57 4e 00 64 1a 91 81 14 1f 31 01 5b 94 be 00
       7.194484e-39 -5.3302456e-38 3.2532063e-38 1.7501964e-38
0003f0 02 56 9c 01 99 42 6c 81 ee 9d 8f 81 1c b9 00 00
       5.7428765e-38 -4.3394136e-38 -5.275652e-38 6.6405e-41

encoder.4.bias f4 [128]
000000 29 e4 b2 98 b5 77 09 3d 1a 06 45 bc f0 f2 bd bd
       -4.6242304e-24 0.033561427 -0.0120253805 -0.09274852
000010 58 40 0c bb e5 14 33 3d 6e f0 5a 3c 28 18 29 3d
       -0.0021400657 0.0437211 0.013362987 0.041282803
000020 a9 1e 39 3d c8 92 50 3d b4 00 0f 3b f4 59 ba 3d
       0.045195255 0.05092123 0.0021820487 0.090991884
000030 c3 76 37 3d a5 59 44 3d 24 44 00 3d 64 80 46 3d
       0.044790994 0.047937054 0.031314984 0.048462287
000040 76 2d 51 3d 79 53 39 3d 8f 62 a0 3c fa 00 d1 bb
       0.051068746 0.04524562 0.019578246 -0.0063782902
000050 40 13 4e 3d 1b 77 0d 3c 07 2d e9 3c 56 55 fe bb
       0.050311327 0.008634354 0.028463854 -0.0077616377
000060 f1 dd 91 3b 1f c4 4f 3d 99 33 5f b1 f9 ed 92 3c
       0.0044515063 0.050724145 -3.24801e-09 0.01793574
000070 3b db a2 bc e2 cf 8b bc 7a f1 91 3d 45 3d 43 3d
       -0.019879928 -0.0170669 0.07126136 0.047665853
000080 d7 ec 37 3d b3 6d b5 3c d9 56 84 9c f8 e7 8c bc
       0.044903602 0.022147035 -8.757477e-22 -0.017200455
000090 2d e1 a9 bc 39 b3 13 3c 43 36 8c bd 70 88 97 ba
       -0.020737255 0.009014898 -0.06846287 -0.0011561047
0000a0 0c ff 14 3d 75 fa ad bc 43 e5 77 bd d2 46 3b 3c
       0.036376044 -0.021237591 -0.060521375 0.011430459
0000b0 41 30 30 bd 56 32 16 bd 7b 09 26 3d 93 c6 43 bd
       -0.04301477 -0.036669098 0.040536385 -0.047796797
0000c0 11 d5 c4 bd 54 c5 ea bd 19 e0 1c 3d 22 29 14 3c
       -0.09610952 -0.114634186 0.038299654 0.00904301
0000d0 d3 85 5e 3c 46 c2 8d 3c 4b 56 db 3c 06 52 61 bd
       0.013581711 0.01730455 0.026774546 -0.055009864
0000e0 a9 ea d3 3c 2a 33 60 bc 53 01 5b 3c 83 90 d5 3b
       0.02586873 -0.013684073 0.013367015 0.0065174713
0000f0 d5 dd e4 bb 29 21 93 bb f0 34 72 3d a0 9e 32 bc
       -0.0069844523 -0.004490037 0.059132516 -0.010902077
000100 01 26 1a ba 43 d7 8b bc f2 56 6c bc 43 8f a0 bd
       -0.0005880297 -0.017070418 -0.014425026 -0.07839825
000110 ae 1c c4 a0 bf 0f bc bc 78 de 6b 3d f6 3c 9b 3d
       -3.322267e-19 -0.022956727 0.05758521 0.07579987
000120 30 2f ec 3b 1a 38 06 3c fe c0 90 bb 8b d1 9b bd
       0.0072077736 0.008192087 -0.0044175377 -0.076083265
000130 0f 89 81 3d 97 66 3f bd c8 c2 a9 bd 1d 48 b7 bc
       0.0632497 -0.046728697 -0.08289105 -0.022373253
000140 c7 dd 21 3d 27 7b bc bd 37 d6 b0 bd c9 61 36 3d
       0.039518144 -0.09203177 -0.08634608 0.04452685
000150 f1 27 80 bc 2f d4 c1 3c ee 39 99 3d 6b 81 6f bd
       -0.015644046 0.023660747 0.07481752 -0.058473032
000160 81 5c 1e 3d 37 cf 4d bd 20 57 3d 3d 4f d0 3d 3d
       0.038662437 -0.050246444 0.046225667 0.046341237
000170 24 c0 92 bc ce 0e 48 bb c8 cf da bd 4f 58 0d bc
       -0.017913885 -0.0030526402 -0.106841624 -0.008627011
000180 97 15 9d bc 46 cc 49 3d fb 0c 29 bd de b2 58 3c
       -0.019175334 0.049267076 -0.041272145 0.013226239
000190 c1 3b ea 3c 16 5e d2 3c 77 69 6b 3b 40 2f 8c bc
       0.028592946 0.02567963 0.0035921016 -0.017112374
0001a0 30 95 32 bd de 04 fc bc 6d 47 96 bc 25 d8 b3 3b
       -0.043599308 -0.03076404 -0.018344605 0.005488413
0001b0 6d a5 b4 3c a7 61 32 92 72 0c a4 bc 6a ab 06 3d
       0.022051537 -5.628726e-28 -0.020025466 0.032878317
0001c0 17 9e 10 be 0b 11 30 3d 55 27 96 3c e2 b3 21 a8
       -0.14122806 0.042985003 0.018329302 -8.976301e-15
0001d0 bd 6a 77 bb a4 02 38 3c 86 e4 44 3c ea 1b 17 bc
       -0.003775283 0.011231098 0.012017375 -0.009222964
0001e0 a9 fd 41 3d 44 ba 13 bb 0d c0 14 3d d0 5e 6a 3d
       0.04736105 -0.0022541443 0.036315966 0.057219326
0001f0 ce a1 85 3d 40 b4 5b bc cb 37 03 3d cd df 85 bd
       0.065250024 -0.013409674 0.03203563 -0.06536827

decoder.0.weight f4 [128, 64, 3, 3]
000000 83 57 0c 81 e1 c8 de 00 9c 6a 83 01 0e 69 da 80
       -2.5776726e-38 2.0459542e-38 4.8274777e-38 -2.0057825e-38
000010 93 e0 42 00 10 74 8a 01 de 04 86 81 4c d1 85 01
       6.141705e-39 5.0859735e-38 -4.923081e-38 4.915681e-38
000020 5e 16 14 81 2d 14 c3 00 44 ca 9c 00 74 4b d6 00
       -2.7199355e-38 1.791516e-38 1.4398897e-38 1.9679864e-38
000030 47 58 cb 00 22 57 ab 01 db 2e 86 80 48 8e cd 80
       1.8674274e-38 6.294051e-38 -1.2322765e-38 -1.8877318e-38
000040 f4 17 94 01 c0 ad 7f 80 e2 60 13 81 08 6f 38 81
       5.4400985e-38 -1.1725438e-38 -2.7069146e-38 -3.3875124e-38
000050 3c c2 97 80 16 df 03 01 00 9f 8b 01 61 97 af 81
       -1.3936838e-38 2.4220956e-38 5.128869e-38 -6.4502065e-38
000060 37 dd 9c 00 c3 53 a5 01 a6 c3 67 01 b1 f9 83 81
       1.4405694e-38 6.073162e-38 4.256837e-38 -4.848009e-38
000070 56 f5 8b 01 ac 20 30 00 d4 b4 2a 01 4a de 56 80
       5.1412576e-38 4.419824e-39 3.1353807e-38 -7.977595e-39
000080 e6 c3 a6 81 91 79 86 01 34 6c 9a 01 06 1a ff 80
       -6.125987e-38 4.9398265e-38 5.672593e-38 -2.3427387e-38
000090 64 f6 df 80 11 58 a2 00 d7 94 b4 80 f9 7b 48 00
       -2.0567704e-38 1.4908943e-38 -1.6583783e-38 6.656629e-39
0000a0 8a 5e 03 81 5d f9 cd 00 c8 ea ef 80 f8 1a 16 81
       -2.4128728e-38 1.8915731e-38 -2.2032907e-38 -2.7569998e-38
0000b0 ee 9b 1c 81 f2 3f 58 01 82 39 b9 01 52 b7 c0 80
       -2.876455e-38 3.9718813e-38 6.8040787e-38 -1.7698178e-38
0000c0 02 a6 5c 81 c8 8b 42 01 c1 5b 23 81 ed 19 6c 00
       -4.0526723e-38 3.573246e-38 -3.0004202e-38 9.927534e-39
0000d0 2a 0f 56 01 e4 b9 84 81 0a 76 ee 00 ee d2 54 80
       3.9316472e-38 -4.875588e-38 2.1899193e-38 -7.789849e-39
0000e0 d4 04 0f 81 fc a7 9d 01 85 b3 be 81 74 8d 70 00
       -2.6268416e-38 5.791374e-38 -7.0052575e-38 1.033632e-38
0000f0 10 7c ba 00 22 3b 10 81 40 f6 fb 00 83 f9 93 80
       1.7125908e-38 -2.649105e-38 2.3139047e-38 -1.3589326e-38
000100 81 51 17 81 d7 3a 6a 80 63 02 fc 00 f3 7f b9 00
       -2.7792796e-38 -9.75567e-39 2.3143401e-38 1.7035466e-38
000110 22 8b 7b 80 f9 fc 4f 81 c0 7e 0f 81 ae 0a c0 01
       -1.1345677e-38 -3.8201394e-38 -2.635589e-38 7.0544986e-38
000120 42 85 af 81 18 ec 93 80 6c 49 7a 00 16 23 91 80
       -6.4476063e-38 -1.3584512e-38 1.123027e-38 -1.3328733e-38
000130 a4 0c e1 80 66 f3 41 81 2f 06 ba 81 6c 62 1a 81
       -2.0667521e-38 -3.562313e-38 -6.833448e-38 -2.8355947e-38
000140 3e c6 51 01 70 f1 bb 80 80 78 28 80 92 83 7c 81
       3.852947e-38 -1.7259849e-38 -3.716647e-39 -4.6379487e-38
000150 7d 1d 71 81 1a da 80 00 45 07 6d 01 cb 17 65 01
       -4.4285866e-38 1.1833184e-38 4.353524e-38 4.2077728e-38
000160 c5 9f 7b 81 6e 0f b3 80 8a b5 46 01 c8 bc f5 80
       -4.6216048e-38 -1.6444089e-38 3.6497104e-38 -2.2567419e-38
000170 dc b4 9e 00 ce 7a a9 81 f1 ae a1 01 36 51 38 01
       1.4574889e-38 -6.225701e-38 5.939309e-38 3.3853729e-38
000180 5a 57 67 01 26 07 6a 81 30 82 c3 00 e0 a6 98 01
       4.249067e-38 -4.298414e-38 1.7954624e-38 5.6075436e-38
000190 e7 45 76 81 ee 25 03 80 b2 4c 05 81 84 74 98 80
       -4.5233217e-38 -2.89113e-40 -2.4483268e-38 -1.4000793e-38
0001a0 bf 3c ae 81 8e be 95 80 62 e7 dc 80 65 97 ac 00
       -6.400467e-38 -1.3751847e-38 -2.0286814e-38 1.5850015e-38
0001b0 cb dc 9f 00 8f da 73 01 10 18 8f 81 9e d9 7e 81
       1.468105e-38 4.478886e-38 -5.256443e-38 -4.6808565e-38
0001c0 34 3d 1c 80 9a d2 0b 81 53 a1 54 81 8e dd aa 80
       -2.59335e-39 -2.5681367e-38 -3.9053995e-38 -1.5691513e-38
0001d0 17 da 85 81 41 6f 7f 01 c9 da 85 81 f9 10 79 81
       -4.916943e-38 4.6915924e-38 -4.9170425e-38 -4.5746254e-38
0001e0 07 14 ab 01 3e 7d 8e 81 9b 5c 91 01 90 67 b0 80
       6.284422e-38 -5.2342276e-38 5.339747e-38 -1.6200199e-38
0001f0 02 68 8a 01 d8 11 2a 01 12 b9 f2 00 4f 03 0a 81
       5.084244e-38 3.123687e-38 2.2290581e-38 -2.534897e-38
000200 52 90 81 01 64 e3 82 81 f6 98 7e 01 e6 53 35 80
       4.7594206e-38 -4.808075e-38 4.6762176e-38 -4.897378e-39
000210 1e 2e 89 00 68 5a 78 01 8c a6 0d 80 a9 2f 05 00
       1.2598007e-38 4.561527e-38 -1.253607e-39 4.76275e-40
000220 52 0b 87 81 70 5e 55 01 12 7a 92 01 12 e5 b0 00
       -4.960741e-38 3.9189677e-38 5.380709e-38 1.6245222e-38
000230 aa 20 94 01 9e f9 a2 01 51 55 86 01 68 99 09 81
       5.4413484e-38 5.9867585e-38 4.934625e-38 -2.527299e-38
000240 c1 01 b5 81 c2 3a 14 81 8a 91 9a 01 78 61 94 81
       -6.6491416e-38 -2.7225464e-38 5.6779504e-38 -5.4506475e-38
000250 40 6c 1e 81 e4 f0 5d 81 f8 9f b4 01 4a cf b3 81
       -2.9097682e-38 -4.076412e-38 6.63511e-38 -6.605166e-38
000260 bb 83 24 01 40 d9 96 81 1b 97 ce 80 f8 31 97 01
       3.0216555e-38 -5.5413036e-38 -1.8972319e-38 5.554034e-38
000270 58 97 3c 01 06 c0 41 80 32 53 0d 01 76 a2 43 81
       3.463873e-38 -6.038192e-39 2.59573e-38 -3.5932404e-38
000280 26 49 a7 00 d8 28 d3 00 f5 89 f9 80 1a e2 19 80
       1.5362769e-38 1.9391942e-38 -2.2916528e-38 -2.376997e-39
000290 63 00 29 00 02 dd 0d 81 db 0d 6c 81 8c 41 bf 81
       3.765394e-39 -2.6056175e-38 -4.3356295e-38 -7.0256374e-38
0002a0 48 5e 0c 80 62 55 e3 80 c8 b0 3a 80 80 02 6a 01
       -1.135848e-39 -2.0877287e-38 -5.389876e-39 4.2980806e-38
0002b0 82 35 79 81 c0 06 8d 81 48 1f b2 01 66 ba 10 01
       -4.5772467e-38 -5.1804906e-38 6.543176e-38 2.6582357e-38
0002c0 dc b9 cf 80 6c 14 f2 00 92 00 08 81 e2 5b 58 01
       -1.9076621e-38 2.2231516e-38 -2.4979664e-38 3.9738857e-38
0002d0 80 2f b3 01 dd 9f 93 01 da 47 65 01 b6 e5 9b 80
       6.5822374e-38 5.4228664e-38 4.2112208e-38 -1.4316907e-38
0002e0 b6 e3 6a 01 ae c1 35 00 48 8d 20 01 74 07 82 81
       4.3142387e-38 4.93676e-39 2.9488723e-38 -4.776515e-38
0002f0 ac f9 05 00 74 60 12 80 08 50 ff 80 d1 3e c3 80
       5.48743e-40 -1.68764e-39 -2.3446761e-38 -1.7930456e-38
000300 4c 81 70 01 ca 94 13 81 94 eb 24 00 a4 ad 63 00
       4.4173804e-38 -2.7106387e-38 3.390587e-39 9.154005e-39
000310 4a 1f 81 80 4a b2 b2 81 a0 0f b7 81 63 59 17 81
       -1.1858003e-38 -6.5642706e-38 -6.7246004e-38 -2.7798452e-38
000320 52 c8 91 81 61 e2 47 80 72 14 ca 00 23 9a 86 81
       -5.3552033e-38 -6.60153e-39 1.8558105e-38 -4.9445e-38
000330 ba 46 9d 01 7e d9 71 00 7c af 86 01 82 fa bc 81
       5.777418e-38 1.0455433e-38 4.9475634e-38 -6.9419754e-38
000340 9c 70 5c 81 29 6c 24 01 9e 41 3b 01 c0 51 35 80
       -4.0488412e-38 3.0199644e-38 3.4393554e-38 -4.896608e-39
000350 26 40 78 00 a0 52 63 81 d0 95 83 80 f4 81 a7 80
       1.1043272e-38 -4.1752596e-38 -1.2084193e-38 -1.5383146e-38
000360 32 b8 90 81 13 82 5f 00 e0 39 0a 81 94 86 a8 01
       -5.3161553e-38 8.771034e-39 -2.538812e-38 6.1906564e-38
000370 21 89 8e 01 c3 95 34 01 c4 9b f5 00 cd 03 26 81
       5.235933e-38 3.3168227e-38 2.2555575e-38 -3.0492112e-38
000380 59 e2 34 81 63 60 a6 01 52 bb 72 01 8d b2 86 81
       -3.3223175e-38 6.111708e-38 4.4582776e-38 -4.9480034e-38
000390 2a 86 98 01 9f 2a 90 81 98 7f a0 01 47 e5 04 81
       5.60285e-38 -5.2958404e-38 5.8957806e-38 -2.440907e-38
0003a0 52 06 a0 01 e5 24 54 81 6b 7f 6a 00 a0 25 b2 81
       5.8783787e-38 -3.896472e-38 9.780272e-39 -6.544086e-38
0003b0 7e f4 8a 81 e6 62 a6 81 70 70 d0 00 d4 bd 10 81
       -5.1044023e-38 -6.112068e-38 1.9142118e-38 -2.6584818e-38
0003c0 d2 c0 04 01 fb 97 3e 80 f1 eb 58 81 46 5b bb 80
       2.4382913e-38 -5.748321e-39 -3.9842214e-38 -1.720598e-38
0003d0 bf e6 26 01 62 ed 05 01 6c 85 ae 01 84 8b 21 01
       3.0654937e-38 2.4598556e-38 6.4108956e-38 2.9671127e-38
0003e0 e5 bd d8 00 ec c4 7e 01 7f 43 80 81 d5 6b b2 81
       1.9904588e-38 4.6793717e-38 -4.7116626e-38 -6.5541605e-38
0003f0 0b c9 5c 00 6c ab 6b 80 08 ae 89 81 30 9d 01 01
       8.520986e-39 -9.887893e-39 -5.0575574e-38 2.3806335e-38

decoder.0.bias f4 [64]
000000 14 e8 bf bb 31 2b 06 bb 74 f8 d4 bb 88 60 cf 3c
       -0.0058565233 -0.0020472521 -0.0064993445 0.025314584
000010 64 13 3f 3d 09 48 e5 ae 1e c8 3f bc 49 e3 b4 3c
       0.04664935 -1.04265103e-10 -0.0117054265 0.022081034
000020 73 b9 c0 3b d3 15 99 bd 41 82 9b 3d 2c b1 f6 bd
       0.0058814823 -0.07474866 0.07593203 -0.120455116
000030 7e 8c b6 3b c3 fe 59 3b 31 c8 05 3d fc 18 6e bc
       0.005570947 0.0033263422 0.03266162 -0.014532324
000040 c3 5d 81 3d 07 19 2b 3d ec 25 8c aa 34 6e fc bc
       0.06316712 0.041771915 -2.489531e-13 -0.030814268
000050 2b b5 8b bc 8b 2a 0f 3d 3c b3 fc 3c 17 f8 69 3d
       -0.017054161 0.03495268 0.030847184 0.057121363
000060 bd 51 71 3d 69 9d 75 3c f9 c9 46 39 6b 5c 49 3d
       0.058915842 0.014991143 0.00018957992 0.049160402
000070 98 6a 21 bd 11 07 00 3d 50 8d be bc 19 8d 49 3d
       -0.039408296 0.03125674 -0.023260742 0.049206827
000080 df f3 1e bd 43 cf 96 bc 6b 3c 3e bc ba c0 52 3b
       -0.038806792 -0.018409377 -0.011611084 0.003215833
000090 f4 7d f8 bd 06 d4 1e 3d a5 93 83 3d aa d8 96 3c
       -0.12133399 0.03877642 0.06424645 0.01841386
0000a0 9a d7 74 bb fb 57 26 bc e7 2b 79 3d 73 97 90 bc
       -0.0037359954 -0.010152812 0.060832884 -0.017650342
0000b0 a3 1b aa a8 07 f2 b9 3b c1 05 3e 3b 11 92 99 bc
       -1.8885777e-14 0.005674604 0.0028995129 -0.018746408
0000c0 44 ba 4a 3d f6 24 2d 3c 28 d8 2b 3c e5 ed 69 a9
       0.049494043 0.010567894 0.010488547 -5.1942734e-14
0000d0 b5 9c 8c bb 5a 4f 89 bb f1 de 9a bc 2c 18 c8 3c
       -0.004291142 -0.0041903676 -0.018905135 0.024425589
0000e0 31 53 81 3d aa 8c 5b 3c 1d 9b f4 3c ba d4 f1 3c
       0.063146956 0.013400236 0.02985912 0.029520381
0000f0 fd 71 87 3d 74 2c 25 3d 73 5d 4e bd b4 11 04 3e
       0.066135384 0.040325597 -0.05038209 0.12897378

decoder.2.weight f4 [64, 32, 4, 4]
000000 93 25 04 bd 95 01 57 bc 92 85 bc bc 6c 7e fa bb
       -0.032262396 -0.013122936 -0.02301291 -0.007644465
000010 71 65 00 bd 07 e3 8a 3d f1 1d 46 3c 1b e7 49 3d
       -0.031346742 0.06781583 0.0120920995 0.049292665
000020 03 ff 0f 3c 8e 29 bc 3d 92 7e f4 3c 37 e5 64 bc
       0.008788827 0.091876134 0.02984551 -0.013970665
000030 71 44 1d 3d 4c 18 53 bc 41 15 f4 3a c5 5b 11 bd
       0.03839535 -0.012884211 0.0018622057 -0.03548791
000040 26 1c 8e b4 6f ac 44 3c 3a 76 8b b6 34 0f 1a 3c
       -2.6470042e-07 0.012004002 -4.156286e-06 0.009403039
000050 9b 20 64 bd 12 52 19 3c 48 9e 84 3d 9e 91 a0 3c
       -0.055695157 0.009357946 0.06475502 0.019600686
000060 dd 43 9f b6 35 ff 9e 3d 04 ec 06 b8 c7 5d a2 3c
       -4.7464696e-06 0.07763521 -3.2167896e-05 0.019820107
000070 db f1 2b 3c 01 cd ba bc 4d 41 f5 3c 82 fc ac bc
       0.010494675 -0.022802832 0.029938364 -0.021116499
000080 c7 28 69 bc 9d 0a ab 3c f8 0a e3 3c a2 72 d4 3b
       -0.0142309135 0.020879084 0.027715191 0.006483392
000090 95 21 ac bb 92 71 01 ba 29 91 02 ba e7 90 c6 b8
       -0.0052530267 -0.0004937883 -0.0004980737 -9.468366e-05
0000a0 72 e1 3d bd aa 13 c9 bc 7c 7c 75 bb cd 53 92 ba
       -0.04635758 -0.02454551 -0.0037458232 -0.0011163891
0000b0 c9 ca ad bc 55 57 3d ba 29 3d 0e 3c ae 39 c1 b8
       -0.02121486 -0.00072227913 0.008681574 -9.213701e-05
0000c0 b8 3b a8 b8 d7 dd 1b bc 28 90 1f bb bc 47 dd 3b
       -8.021988e-05 -0.00951334 -0.0024347398 0.006752936
0000d0 8d 8a 88 9a f6 9a 8e 3c e9 f5 bf a0 71 a2 1a bb
       -5.647212e-23 0.017407876 -3.2519388e-19 -0.0023595358
0000e0 27 24 a6 b6 59 d5 13 3d 0f 22 0e bb 24 07 28 3c
       -4.951394e-06 0.036092136 -0.002168778 0.010255609
0000f0 e9 08 85 95 03 16 26 3c b0 7a 22 9e e6 39 f8 bc
       -5.373233e-26 0.010137084 -8.60158e-21 -0.030301046
000100 21 a3 5a 3c 2f 02 89 3c 91 c9 98 bb f1 32 00 3c
       0.013344557 0.016724674 -0.0046627005 0.007824645
000110 37 cc ef 3c 41 70 0f 3d 5d 4e 27 bd b2 0f 74 3c
       0.029272182 0.035019163 -0.040846217 0.01489632
000120 05 84 da bc 69 2d 77 bd c5 83 4a bc cf 81 8f 3b
       -0.02667428 -0.06034604 -0.012360518 0.004379488
000130 7f 12 2b bd fa ff 2f bc 1b 7c d3 bc 0c 56 25 bc
       -0.041765686 -0.010742182 -0.025816014 -0.010091316
000140 fc 66 ee b5 61 3c 37 ba 0f 65 9c b8 44 0e 45 b8
       -1.7762354e-06 -0.0006989893 -7.457483e-05 -4.6981746e-05
000150 c5 a9 71 bc 23 8a 7c b9 f0 db 14 3d 7c 9c 92 ba
       -0.014749949 -0.00024084053 0.03634256 -0.0011185552
000160 b4 1a 05 ba 5d b4 ad ba 16 71 ca ba 21 94 82 b9
       -0.00050775264 -0.0013252605 -0.0015445079 -0.00024905897
000170 2e 1b 9d bc e7 11 15 ba 29 7a 81 3b 8a 50 91 ba
       -0.019178 -0.00056865666 0.00395133 -0.0011086625
000180 7f bd 98 3c 5c 49 ec 3b 08 13 06 bc 7e bc 57 3b
       0.018645046 0.0072108936 -0.008183248 0.0032918747
000190 5f 44 6a bb 4d 06 09 a6 64 3a 9b bc 32 56 88 a3
       -0.0035746319 -4.753996e-16 -0.018948741 -1.4781655e-17
0001a0 a3 b2 31 3d 6d f4 55 bd 23 cf c8 b9 d3 3c da bc
       0.043383252 -0.052235056 -0.00038301302 -0.026640331
0001b0 0a da 4a bb be f5 a5 a8 fc fd a6 3c e7 8f 69 a5
       -0.0030952715 -1.8425254e-14 0.020384781 -2.0258285e-16
0001c0 d1 5b 72 3a 31 8d 03 bb 69 bf fa 3c 72 2b 26 bc
       0.0009245249 -0.002007317 0.03060885 -0.010142194
0001d0 92 1b 1d bc bf 2d cc 3c 76 d0 1f bc f3 9a 40 3d
       -0.009589093 0.024924157 -0.009754291 0.04702277
0001e0 89 c8 cd bc 7b d3 83 3c 30 6f f0 b9 a2 5c 0a bb
       -0.025120037 0.016092053 -0.00045859208 -0.0021112342
0001f0 00 e0 8a 3b 58 0b 6f bd 08 c7 01 bd 38 ff 08 bc
       0.0042381287 -0.058360428 -0.03168395 -0.00836163
000200 43 da a3 3a d2 b4 81 3c d8 e9 f6 bc b3 9d bd bb
       0.001250096 0.015833292 -0.030140802 -0.0057866215
000210 5e 79 b0 bb 50 e8 14 3c e2 22 24 3d c9 00 cc bc
       -0.005385562 0.009088591 0.04007233 -0.024902718
000220 96 60 81 bc 4f 93 64 3d e6 d9 65 3b aa 69 bb bc
       -0.015793126 0.055804547 0.0035072505 -0.022877533
000230 c2 36 52 bd ac c5 10 bd 00 da 1a 39 65 74 6d bc
       -0.051321752 -0.035344765 0.00014767796 -0.014493083
000240 2d 4e d6 bb a3 9a 89 3c ad f2 86 3c 04 4e 15 bc
       -0.006540081 0.01679737 0.016473139 -0.009112839
000250 04 6d 70 3c a9 6d fa 3c 80 86 46 3d 03 b1 53 bc
       0.014674429 0.030569868 0.048468113 -0.012920621
000260 8a a1 0b 3d 6f 05 63 3d f2 f8 ec 3b bd 0d d9 bc
       0.034089603 0.055425104 0.007231825 -0.026495809
000270 15 bc f6 3c e9 cd b0 bc b9 b6 da bc 72 2e d2 3a
       0.030118981 -0.02158256 -0.026698457 0.001603557
000280 6f cb 9e 3c 00 0c 32 bd 07 27 1f bb 8e c4 14 bd
       0.019384114 -0.043468475 -0.0024284737 -0.03632026
000290 f7 74 ae bb 36 9e 12 3d af 20 8a 3d 2d fc 1e 3b
       -0.005324002 0.035795413 0.06744515 0.0024259195
0002a0 7d 12 f4 bb 07 ff b7 3d fb 33 94 3d de 54 9e 3b
       -0.007448493 0.089841895 0.07236477 0.0048318943
0002b0 68 49 f5 ba 54 37 80 bc 85 9f 28 bb a9 22 20 bd
       -0.0018713893 -0.015651383 -0.0025729847 -0.039095555
0002c0 c6 49 51 3d ae 9e 21 3d 09 b6 96 bc 6d a6 0e 3d
       0.051095746 0.03945797 -0.018397348 0.034826685
0002d0 58 ad a5 3c ac 1d 86 bc 70 cc d6 bc 79 6d 94 3d
       0.020224258 -0.01637157 -0.02622053 0.07247443
0002e0 38 d5 28 3c 88 ee 2f bd 6d aa 39 bd dc b6 86 bc
       0.010304742 -0.04295209 -0.045328546 -0.016444616
0002f0 c4 21 fa bb af 39 21 3d dc 34 f3 bc f7 4d 2a bc
       -0.0076334197 0.039361652 -0.029688291 -0.010394565
000300 49 b9 71 97 37 cb 5b bb 2d e9 7c 15 39 99 2a 3d
       -7.8105163e-25 -0.0033537874 5.1074938e-26 0.04165003
000310 94 76 9c b8 59 62 0a 81 f0 e6 61 3d 98 11 f2 80
       -7.4607466e-05 -2.5417158e-38 0.05515188 -2.2230502e-38
000320 2b d2 b8 00 3c 5e c7 bb 46 71 e0 80 c0 c1 ae bb
       1.6973125e-38 -0.0060842317 -2.0611786e-38 -0.0053331554
000330 97 f8 1f 3d 46 a8 e0 80 0b 5f 47 bc fb c7 62 81
       0.039055433 -2.0631516e-38 -0.012168656 -4.1653123e-38
000340 3e d7 ee 3c 22 52 44 3c 5a 03 a2 3b 01 2b b4 3c
       0.02915537 0.011982473 0.004944247 0.021993162
000350 2c f6 83 3c 6c af 87 ba 68 49 16 3b ed 89 86 ba
       0.016108595 -0.0010351962 0.0022931937 -0.0010264494
000360 74 dd 61 bb c3 5c 67 bd d5 b8 3a 3d 02 a2 4c 3d
       -0.0034464272 -0.05648495 0.045586426 0.04995919
000370 10 5d 86 bc 64 d8 3f 3b c9 37 b1 bb 87 73 29 3b
       -0.016401798 0.0029273266 -0.0054082614 0.0025856213
000380 4f 28 76 bb 70 19 b3 81 bd fa 86 bc 4c 7f 0a 81
       -0.0037560647 -6.5790716e-38 -0.016476983 -2.5437928e-38
000390 fb a3 85 bc b3 c6 bd 81 f9 6c 8e 3c 64 ff 3c 00
       -0.016313544 -6.9712754e-38 0.017385947 5.601747e-39
0003a0 17 35 fb ba cf bf a3 01 48 5d 27 bc 6e 95 53 01
       -0.0019165602 6.0151975e-38 -0.010215111 3.886179e-38
0003b0 6a d7 99 bb df f1 03 01 31 9c c7 3b d3 35 2f 81
       -0.004694869 2.4234434e-38 0.0060916175 -3.218104e-38
0003c0 dc 2f 5c b9 8f 37 1f ba 7f 37 f8 ba bd 0f 33 b2
       -0.00020998664 -0.00060736475 -0.0018937438 -1.042275e-08
0003d0 45 53 e3 bc 0d e6 36 bc 3d 1e 1c bd 6d 45 2d bc
       -0.027749667 -0.011163247 -0.038114775 -0.010575634
0003e0 c9 e3 0c bb 30 69 85 ba 58 ae c8 39 3f 23 8e ba
       -0.0021498075 -0.0010178443 0.0003827687 -0.0010844244
0003f0 9b 6b 8d bd c9 fb c1 bb 56 0c d5 bb 01 57 86 bb
       -0.0690529 -0.0059199077 -0.0065017147 -0.004099727

decoder.2.bias f4 [32]
000000 54 ee 1d 3d a1 7e 4a bc 9c f3 0d 3c 87 c9 75 bc
       0.038557366 -0.012359292 0.008664038 -0.015001661
000010 78 a2 51 3b f5 34 a2 3c 13 f2 04 bd 44 e5 21 3d
       0.0031987708 0.019800643 -0.032457422 0.039525285
000020 9c cc 89 3d c1 ed a7 3c 48 4c b1 3c 3c 3e 06 3d
       0.06728479 0.020499112 0.021642819 0.032774195
000030 40 0c 9a bc 7c bc 8e 3d 3d 74 d3 bd 85 72 2f 3d
       -0.01880467 0.06969544 -0.10324905 0.042833824
000040 f5 ef 44 bc df 5b 66 3d 94 f5 87 3d 7d 1a d8 3b
       -0.012020101 0.05623996 0.06638637 0.0065949545
000050 b8 f0 13 39 71 79 d6 3c e0 fd 30 bc 67 4f 9b 3c
       0.00014108687 0.026180955 -0.010802716 0.01895876
000060 cf 84 bc 3c 4f dd fd 3c c0 9c a7 3c 6f 22 cb 3c
       0.023012547 0.030989317 0.020460486 0.024796693
000070 bb fe 17 3d 89 ce 7b 3d 89 ca ed 3c 39 ea 64 ba
       0.037108164 0.061476264 0.02902724 -0.00087324117
